checkpoints/django_shared_best.pt (torch, 284682 bytes, 30 tensors)

embedding.embs.0.weight f4 [3, 8]
0	0x3ff6a529	1.9269153
1	0x3fbe5f53	1.4872841
2	0x3f669567	0.9007172
3	0xc006c0db	-2.105521
4	0x3f2dacd4	0.6784184
5	0xbf9e0591	-1.2345449
6	0xbd306786	-0.043067478
7	0xbfcd65ba	-1.604667
8	0x3f0ace38	0.54220915
9	0xbf51dd97	-0.81978744
10	0xbf31a61c	-0.6939409
11	0x3ef153e6	0.47134322
12	0xbf9d8643	-1.2306598
13	0x3e92426d	0.28566304
14	0xc01cf6a7	-2.4525545
15	0xbed47a99	-0.41499785
16	0xbf04ed84	-0.5192492
17	0xbe7f9ac4	-0.24961382
18	0x3f84ae59	1.0365707
19	0xbf64912e	-0.89284027
20	0xbee9d458	-0.45669818
21	0xbe84febd	-0.259756
22	0xbf29db85	-0.66350585
23	0x3f096aae	0.53678405

embedding.embs.1.weight f4 [3, 8]
0	0x3d0f003f	0.034912344
1	0x3ea4679d	0.321103
2	0x3fc96bbb	1.5736002
3	0xbf58708e	-0.84546745
4	0x3fa7f9b2	1.3123076
5	0x3f2fe9b1	0.6871596
6	0xbf8b6a19	-1.0891753
7	0xbeb5e821	-0.35528663
8	0x3fb6bbe1	1.4276086
9	0x3f48fa60	0.7850704
10	0x400e9d5e	2.228355
11	0x3efa892f	0.48932788
12	0x3eaa6a3f	0.33284184
13	0xbe24edca	-0.16106334
14	0xbf7ea6a6	-0.99473035
15	0x3f9f8b40	1.2464371
16	0xbda0134d	-0.07816181
17	0x3f0c14e8	0.547194
18	0x3dc6e57d	0.0971174
19	0x3ecf920d	0.40541115
20	0x3f0c9dda	0.5492836
21	0xbf1ecc9e	-0.6203097
22	0xc00c3469	-2.1906989
23	0xbf411d28	-0.75435114

embedding.embs.2.weight f4 [3, 8]
0	0x3c32104d	0.010868144
1	0xbead6fa3	-0.33874235
2	0xbfab9b63	-1.3406795
3	0xbf15dad8	-0.58537054
4	0x3f0943a0	0.5361881
5	0x3f064dab	0.5246226
6	0x3f9212e5	1.1412016
7	0x3d53883c	0.051643595
8	0xbf22d0c7	-0.6359982
9	0x3f100074	0.5625069
10	0x3e39c05e	0.18139789
11	0xbea551f1	-0.3228908
12	0xbe97403d	-0.29541197
13	0x3f12046d	0.57038003
14	0xbf573740	-0.8406868
15	0x3ec4afed	0.3841547
16	0xbf82f938	-1.0232306
17	0x3e1a9b6f	0.15098356
18	0x3ec591b0	0.38587713
19	0x3f156cd2	0.5836917
20	0xbe5230de	-0.20526454
21	0x3e500030	0.20312572
22	0x40804683	4.0086074
23	0x3fa6fea1	1.3046457

embedding.embs.3.weight f4 [3, 8]
0	0x3f83facf	1.0310916
1	0xbf346b7b	-0.704765
2	0x3f81aed8	1.0131483
3	0xbea960f5	-0.33081785
4	0x3f048788	0.51769304
5	0x3ec68ae6	0.38777846
6	0xbf1465bb	-0.5796773
7	0xbe2d2c8b	-0.16911523
8	0xbf759826	-0.95935285
9	0x3f6c8786	0.9239429
10	0x3fc7ab2d	1.5599114
11	0x3fb55273	1.4165787
12	0x3e6b1fd0	0.22961354
13	0xbe4f7c52	-0.20262268
14	0xbf38894c	-0.720845
15	0x3dd06218	0.1017496
16	0x3ea79979	0.32734278
17	0x3f7d9048	0.9904828
18	0xbeec79c8	-0.46186662
19	0x3fd21e45	1.6415488
20	0xc01c3d96	-2.441259
21	0xbeefc21a	-0.46827775
22	0xbf9b7ff7	-1.2148427
23	0x3f591b53	0.8480732

embedding.embs.4.weight f4 [3, 8]
0	0xbff34554	-1.9005532
1	0x3e6a0ff7	0.22857653
2	0x3ccba5f3	0.024859404
3	0xbeb12064	-0.34595025
4	0x3e92dbc0	0.2868328
5	0xbf3b187d	-0.7308424
6	0x3e330415	0.17482026
7	0xbf8c05e0	-1.0939293
8	0x3f303e5f	0.6884517
9	0x3fc219e0	1.5164146
10	0xbfb6c4f9	-1.4278861
11	0xbf417b7a	-0.75579035
12	0xbf664527	-0.8994927
13	0xbf9c0d42	-1.2191546
14	0xbf404f47	-0.7512097
15	0xbf1571ab	-0.5837657
16	0xbfbd5003	-1.4790043
17	0xbf40559d	-0.75130635
18	0x3edf9314	0.436669
19	0x3f28cf18	0.65941
20	0xbda2184a	-0.07914789
21	0x3e3df651	0.18550994
22	0xbf40e74d	-0.75352937
23	0xbf44aab8	-0.76822996

embedding.embs.5.weight f4 [3, 8]
0	0xbe2327af	-0.15933107
1	0xbed99238	-0.4249437
2	0x3f71b91f	0.944231
3	0xbe3d5f7a	-0.18493453
4	0x3f87c844	1.0607991
5	0x3e554d80	0.20830345
6	0xbf13edda	-0.5778481
7	0x3ea6a2e2	0.32546145
8	0x3b9b2d1c	0.004735602
9	0x3fd0542b	1.6275686
10	0x3dee7587	0.1164351
11	0xbf82ee9f	-1.0229071
12	0xbf07c9e5	-0.5304244
13	0x3db2a4f8	0.087228715
14	0x3ec17953	0.37787876
15	0x3ffac978	1.9592733
16	0xbd8e090f	-0.069353215
17	0xbf66fa49	-0.90225655
18	0xc00580dc	-2.08599
19	0xbf874646	-1.0568321
20	0x3c92a392	0.017900262
21	0x3d8e771c	0.06956312
22	0x3e473662	0.19454339
23	0x3ecfd49d	0.405919

embedding.embs.6.weight f4 [2, 8]
0	0xbf6ddb7c	-0.9291303
1	0x3e8d68e4	0.27619088
2	0xbf09f3bb	-0.5388753
3	0x3eecd797	0.46258232
4	0xbf5f3420	-0.8718891
5	0xbcde2753	-0.02711836
6	0xbeb4dca1	-0.35324576
7	0x3fbb5faa	1.4638569
8	0x3f9e308b	1.2358564
9	0xbf2b742f	-0.6697416
10	0x3f58b4f7	0.8465113
11	0x3f01105e	0.504156
12	0x3efec58c	0.4976009
13	0x3f0a014f	0.53908247
14	0x3ef4bda1	0.47800925
15	0x3e4ab7f7	0.1979674

embedding.embs.7.weight f4 [3, 8]
0	0xbf2f7bb9	-0.6854816
1	0x3f104567	0.563559
2	0xbfc0eb1d	-1.5071751
3	0xbfce2a4e	-1.610666
4	0xbfbd5166	-1.4790466
5	0x3edd530e	0.43227428
6	0xbe0006a9	-0.1250254
7	0x3f4838e9	0.7821184
8	0x3f5d35ad	0.8641003
9	0xbf1916f9	-0.5980068
10	0xbf829466	-1.0201538
11	0xbe71bff3	-0.23608379
12	0x3f419961	0.7562466
13	0x3f58c929	0.84681946
14	0xbd391b60	-0.045192122
15	0x3ea139f0	0.31489515
16	0xbef3283e	-0.4749164
17	0x3e96d4b1	0.29459146
18	0x3ec88a0f	0.3916783
19	0x3f2db71f	0.67857546
20	0x3e896aa7	0.26839182
21	0x3dfca3f2	0.123359576
22	0xbe409504	-0.18806845
23	0x40088162	2.132897

embedding.embs.8.weight f4 [3, 8]
0	0x3f05e088	0.5229573
1	0x3f78c353	0.9717304
2	0xbe8e42e7	-0.27785417
3	0xbf1c91ad	-0.61159784
4	0xbf0ea3e4	-0.5571883
5	0xbf77e598	-0.9683471
6	0x3f5f0c27	0.8712792
7	0xbdc3df59	-0.095640846
8	0x3eba7d0a	0.36423522
9	0xbf3b3b87	-0.73137707
10	0x3f890ce8	1.0707064
11	0xbfb6d4da	-1.4283707
12	0x3ee23471	0.44180635
13	0x3ebadfdc	0.36498916
14	0x3ca2fd74	0.019896246
15	0x3d44efde	0.048080318
16	0x3ea57781	0.32317737
17	0x3f331651	0.6995593
18	0xbfd92042	-1.6962969
19	0xbf5dc440	-0.8662758
20	0x3eea86ba	0.45805913
21	0x3e91acea	0.28452235
22	0xbf1345ec	-0.5752857
23	0x3d722c94	0.059124544

embedding.embs.9.weight f4 [3, 8]
0	0x3f62a851	0.8853808
1	0x3e3ad299	0.18244399
2	0x3f495044	0.786381
3	0xbd6d3dd5	-0.057920296
4	0x3f1110fa	0.5666653
5	0xbf35b2fc	-0.70976233
6	0xbef99a50	-0.48750544
7	0x3d4d3176	0.050095998
8	0x3f58ed3f	0.8473701
9	0xbf338606	-0.7012638
10	0x3ea58b51	0.32332852
11	0x3eb93a01	0.36177066
12	0x3ecf0f39	0.404413
13	0xbfa08602	-1.2540896
14	0x3f651d70	0.89498043
15	0xbc1fa078	-0.009742849
16	0x3e1e5173	0.15460758
17	0xbd285a10	-0.041101515
18	0xbdcd6e46	-0.100307986
19	0xbf8b9ddc	-1.090755
20	0x3fc3bb66	1.5291564
21	0x3f0d41ac	0.5517833
22	0x3f80199f	1.0007819
23	0x3f02eaac	0.5113933

embedding.embs.10.weight f4 [3, 8]
0	0xbfaae379	-1.3350669
1	0x3fd368ca	1.6516354
2	0x3ffd9198	1.9810057
3	0xbdd69d9c	-0.1047928
4	0x3efb06ec	0.49028718
5	0xbedffb86	-0.43746585
6	0xbf9c2c9b	-1.2201113
7	0xbf15ddc5	-0.5854152
8	0x3d14392c	0.036187336
9	0xbf860e3a	-1.0473092
10	0xbf4a21e0	-0.7895794
11	0xbedee345	-0.43532768
12	0x3f771d57	0.96529144
13	0xbe027d61	-0.12743141
14	0x3e22bc18	0.15892065
15	0xbd1aec1e	-0.037822835
16	0x3f76f4b2	0.96467125
17	0xbfced05c	-1.6157336
18	0x3f614d69	0.88008744
19	0x3f90df14	1.1318078
20	0xbd9206b7	-0.07130187
21	0xbe928e04	-0.28623974
22	0xbd9d6299	-0.07684822
23	0x3f48bd83	0.7841417

embedding.embs.11.weight f4 [3, 8]
0	0x3f2f1273	0.68387526
1	0xbfa98c25	-1.3245894
2	0xbf041def	-0.51608175
3	0x3f19a5ad	0.60018426
4	0xbef0c0c9	-0.47022083
5	0xbf1bd010	-0.60864353
6	0xbd3d33d9	-0.046192024
7	0xbfd2a79a	-1.6457398
8	0x3f3ad993	0.7298824
9	0x3fb80948	1.4377832
10	0xbf8dc1aa	-1.1074727
11	0x40057778	2.0854168
12	0x40136c28	2.3034763
13	0xbf13a6a3	-0.5767614
14	0xbeb18007	-0.3466799
15	0xbfd347b9	-1.6506263
16	0xbf122ed9	-0.57102734
17	0x3fb0e959	1.3821212
18	0x3e654744	0.22390467
19	0x3e0557f9	0.1302184
20	0x3fc13173	1.5093216
21	0xbee608b6	-0.4492852
22	0xbecf8d56	-0.40537518
23	0xbfadd226	-1.3579757

wide.weight f4 [32, 206]
0	0xbc958755	-0.018253008
1	0x3e0763cc	0.13221663
2	0x3dbf93fe	0.09354399
3	0xbab2c7d8	-0.001363988
4	0x3c45aea5	0.012065564
5	0xbd4fed42	-0.050763376
6	0xbd1a6ba1	-0.0377003
7	0x3c291954	0.01032098
8	0x3d436240	0.04770112
9	0xbd11cbdd	-0.03559481
10	0xbcafd074	-0.021461703
11	0x3d058909	0.03260139
12	0x3d4cdfdf	0.050018188
13	0x3dcbe11a	0.09955044
14	0x3d5f4e61	0.054518107
15	0x3d0c075a	0.0341867
16	0x3d579772	0.052634664
17	0x3d16cd86	0.036817096
18	0xbca724b9	-0.020403253
19	0x3e00c783	0.12576108
20	0x3d0e1a39	0.034692977
21	0xbcfe08da	-0.03101008
22	0xbdb7cbca	-0.089744166
23	0x3d14f7f1	0.036369268
24	0x3d41e8e2	0.047341235
25	0xbc18f532	-0.009335803
26	0x3d128a2b	0.0357763
27	0x3c19fbf0	0.0093984455
28	0xbca35fa5	-0.019943068
29	0xbd8c192d	-0.068407394
30	0x3e18f4e0	0.14937162
31	0xbc3fc250	-0.011704043
32	0x3dc8db85	0.09807495
33	0x3d8acea8	0.06777698
34	0x3caab7f4	0.020839669
35	0x3dca9ed9	0.09893579
36	0x3daf2c6c	0.08553395
37	0x3d1485a0	0.036260247
38	0xbc0d8bec	-0.008639317
39	0x3d2574a1	0.04039443
40	0x3bff7e4e	0.007797039
41	0x3d84ab7c	0.064780205
42	0xbded202b	-0.11578401
43	0xbcf14554	-0.029452004
44	0xbd55f9b1	-0.052240077
45	0xbd09dff9	-0.033660863
46	0x3c421a98	0.011847161
47	0xbca5e0d0	-0.0202488
48	0xbca5b355	-0.020227114
49	0x3c3338a8	0.010938801
50	0xbde074fd	-0.10959814
51	0xbb682552	-0.0035422635
52	0xbd95a894	-0.07307544
53	0x3d418af0	0.04725164
54	0xbd7a4f55	-0.061110813
55	0xbe05f042	-0.13079932
56	0x3cb1a5ac	0.021685444
57	0xbd59b5b8	-0.053151816
58	0xbcab3bb0	-0.020902485
59	0xbd8c2edb	-0.068448745
60	0x3d50b1b7	0.050950732
61	0xbe01b8c4	-0.12668139
62	0x3c9e6ee9	0.019339995
63	0xbb4d8fcc	-0.0031366227
64	0xbc6752ac	-0.014118832
65	0x3d4da964	0.05021037
66	0xbbd30470	-0.006439738
67	0x3d32fa78	0.043695897
68	0x3d4e55d8	0.050374836
69	0xbd77c57a	-0.060491063
70	0x3cdb9ee8	0.02680917
71	0x3c577f10	0.013152853
72	0x3c757118	0.014980577
73	0x3c26a738	0.010171704
74	0x3c9c1f1c	0.019057803
75	0xbd0949a9	-0.033517513
76	0xbc120c5c	-0.0089140795
77	0x3d8792d0	0.06619799
78	0x3d3fbbd0	0.04680997
79	0xbb2b8aa0	-0.0026175156
80	0xbd863489	-0.06552989
81	0x3b481f60	0.003053628
82	0xbd425665	-0.047445673
83	0x3d6811f0	0.05665773
84	0xbd2d4070	-0.04229778
85	0xbba4d720	-0.0050305277
86	0xbc7d5a88	-0.015463479
87	0x3c4b23a0	0.01239863
88	0x3e0a4b92	0.1350539
89	0x3d756957	0.059914913
90	0x3e0e87af	0.13918947
91	0x3dcc429e	0.09973644
92	0x3dbb0b4a	0.091330126
93	0x3dc19acd	0.09453354
94	0x3e950177	0.2910268
95	0x3d261a32	0.040552326
96	0xb9a2e56d	-0.00031069983
97	0x3d543344	0.051806703
98	0xbbb03f22	-0.00537862
99	0xbbb14e33	-0.0054109334
100	0x3d65e708	0.05612853
101	0x3a8bdb39	0.0010670192
102	0x3db0c7e8	0.08631879
103	0x3dba3323	0.09091785
104	0x3da27a2d	0.079334594
105	0x3dea5724	0.11442402
106	0xbe040f3d	-0.12896438
107	0xbd757d32	-0.05993385
108	0xbcbceb0f	-0.023061303
109	0xbd58a7c8	-0.052894384
110	0xbe809a51	-0.25117734
111	0x3adf63c2	0.001704328
112	0x3e0dad7a	0.13835707
113	0xbe9ea2d9	-0.30983618
114	0xbb8c6c4a	-0.00428537
115	0xbe7d5955	-0.24741109
116	0x3bf8af50	0.0075892583
117	0x3e70d107	0.23517238
118	0x3d3019fa	0.042993523
119	0xbb885e86	-0.0041616587
120	0xbc923c0a	-0.017850894
121	0x3d460c0b	0.04835133
122	0xbc5bc447	-0.013413495
123	0xbd7c17c3	-0.0615461
124	0x3cdab79d	0.026698882
125	0xbe09470b	-0.13406007
126	0xbc14a79f	-0.009073167
127	0x3db12b96	0.086508915
128	0x3d03a5f5	0.03214069
129	0xbb795b34	-0.0038048746
130	0xbd5c0941	-0.053719763
131	0x3c6a7f5c	0.014312591
132	0xbc65f7ca	-0.014036128
133	0x3d15c72c	0.0365669
134	0x3c454132	0.01203947
135	0x3d9548fd	0.07289312
136	0xbd1e7cce	-0.03869324
137	0x3ca10956	0.019657772
138	0xbcbdff4b	-0.023193022
139	0xbda7904f	-0.081818216
140	0xbccaa475	-0.024736622
141	0xbcd8885f	-0.026432214
142	0x3d7eaee9	0.062178526
143	0x3c304576	0.010758748
144	0xbd6559ed	-0.055993963
145	0x3cfa46b1	0.030551286
146	0xbda2924a	-0.07938059
147	0xbd25b0dd	-0.040451873
148	0xbd13c007	-0.036071803
149	0xbda34a78	-0.07973188
150	0xbd9081ac	-0.07055983
151	0x3b89dcb6	0.004207219
152	0x3d8b643d	0.06806228
153	0x3d59bd48	0.05315903
154	0x3c9dc4d3	0.019258892
155	0xbc85a266	-0.01631279
156	0xbc91d9d9	-0.017804073
157	0x3d8965dc	0.06708881
158	0x3d3b0ef2	0.04566855
159	0xbc0dbf56	-0.008651575
160	0x3d0e1f5e	0.034697883
161	0xbd18cf07	-0.03730681
162	0xbc1180ac	-0.008880775
163	0x3dbe4ab4	0.09291592
164	0x3b571ee0	0.00328248
165	0x3c89ddc0	0.016829371
166	0xbde48f1a	-0.11160107
167	0x3c68fd5e	0.014220564
168	0x3d7b316e	0.061326437
169	0xbc7d5d10	-0.015464082
170	0x3c5fff24	0.01367167
171	0x3d0fb58c	0.035085246
172	0xbdac31d1	-0.08407939
173	0x3d18ef21	0.037337426
174	0xbce59bad	-0.028028334
175	0xbdb4b86d	-0.08824239
176	0x3d714097	0.05889949
177	0x3ce9ff81	0.028564217
178	0x3c3ef14f	0.011654212
179	0xbae75d69	-0.001765174
180	0xbd5f5b61	-0.054530505
181	0xbcc1efaa	-0.023673851
182	0xbd2dd076	-0.042435132
183	0xbd0be7f0	-0.03415674
184	0x3d1dd0ae	0.03852909
185	0xbd9c9c03	-0.076469444
186	0x3da3a73b	0.07990881
187	0x3cf9f0a9	0.030510264
188	0xbd13238f	-0.035922583
189	0xbc93cbf6	-0.018041592
190	0x3d5ed2a7	0.054400112
191	0xbd053c0e	-0.032527976
192	0xbd065c29	-0.032802735
193	0xbb644f3e	-0.003483727
194	0x3dacf24c	0.08444652
195	0xbd5cd470	-0.053913534
196	0x3da022f9	0.078191705
197	0x3ce1bf2b	0.027556976
198	0x3d0f4bc2	0.034984358
199	0x3d861b04	0.065481216
200	0xbce3ea36	-0.027821641
201	0xbc9a1d30	-0.018812746
202	0xba8de2cd	-0.0010825038
203	0x3d1e8aca	0.03870658
204	0xbd8ded15	-0.069299854
205	0xbbc8298f	-0.00610847
206	0xbcd52fda	-0.026023794
207	0x3dac02c6	0.083989665
208	0x3db757c0	0.08952284
209	0xbb4edff7	-0.00315666
210	0x3c2b2683	0.010446194
211	0xbd983b53	-0.0743319
212	0xbce2136b	-0.02759715
213	0xbc8c7a06	-0.017148029
214	0x3c10fcd3	0.0088493405
215	0x3cfd32f8	0.030908093
216	0x3dc35a50	0.0953871
217	0x3da79e6b	0.08184513
218	0xbd4481eb	-0.047975462
219	0x3d9b8560	0.07593799
220	0xbc139f89	-0.009010204
221	0xbd76228e	-0.060091548
222	0xbd81b173	-0.06332674
223	0x3c98f4d2	0.018671427
224	0x3d9fd44d	0.07804165
225	0x3d572166	0.052522086
226	0x3cbdbc13	0.02316097
227	0x3b025cf9	0.0019891842
228	0xbdc62529	-0.096750565
229	0x3da2dde4	0.079524785
230	0xbd5b445a	-0.053531982
231	0xbc14e9fb	-0.009088988
232	0xbbdb349c	-0.006689621
233	0xbce0c8b2	-0.027439449
234	0x3d18cf19	0.03730688
235	0x3cef4436	0.02920733
236	0x3dd1ca00	0.102436066
237	0x3d8be364	0.06830481
238	0x3cff919d	0.031197364
239	0x3d24d17a	0.040238835
240	0x3d64c7a4	0.055854455
241	0x3e0f16a2	0.13973477
242	0x3c26f753	0.010190803
243	0x3dad61c4	0.08465913
244	0x3d84a492	0.06476702
245	0xbc97415f	-0.018463789
246	0xbd8203a6	-0.06348352
247	0xbd6f5ce9	-0.058438215
248	0xbd68c641	-0.056829695
249	0xbd6750e8	-0.056473643
250	0xbd5b6d2c	-0.05357091
251	0x3cb43ef0	0.022002667
252	0xbd77f0bc	-0.060532317
253	0xbd213d12	-0.03936488
254	0xbd9e977f	-0.07743739
255	0x3c95efad	0.018302763

wide.bias f4 [32]
0	0x3d9528c7	0.07283168
1	0xbc8162c2	-0.015794162
2	0x3d339f00	0.043852806
3	0x3d23819d	0.03991853
4	0xbd0b06d1	-0.033942048
5	0xbc970342	-0.01843417
6	0x3c1108c6	0.008852189
7	0x3c958c55	0.018255392
8	0x3d778e20	0.060438275
9	0xbbf35309	-0.00742567
10	0x3cf7b47c	0.030237429
11	0xbc8d53fc	-0.017251961
12	0xbc358cff	-0.011080979
13	0x3d7e7e25	0.06213202
14	0xbb84ddf2	-0.0040547783
15	0xbd338158	-0.043824524
16	0x3c7588c9	0.014986225
17	0xbc98e989	-0.018666046
18	0x3d307c57	0.04308733
19	0xbc6242a2	-0.013809832
20	0x3c950e88	0.018195406
21	0xbc27f333	-0.010250854
22	0xbca18d0a	-0.019720573
23	0x3d16e3de	0.036838405
24	0x3d35ab61	0.044352893
25	0x3d1233a6	0.035693787
26	0x3daf3a7d	0.08556078
27	0x3cfd1d89	0.030897873
28	0x3cd03b75	0.025418976
29	0x3bae6848	0.00532249
30	0xbd5de64a	-0.0541747
31	0x3c999648	0.018748417

deep_input.net.0.weight f4 [128, 206]
0	0x3e6144ce	0.21998903
1	0x3ce4f298	0.027947709
2	0xbcca4742	-0.024692181
3	0x3cd2c49c	0.025728516
4	0xbd3b722d	-0.045763183
5	0xbd6e8af6	-0.058237992
6	0xbda55ceb	-0.08074363
7	0x3c8ce7ec	0.017200433
8	0xbc562371	-0.013069973
9	0x3c6a5ba8	0.014304079
10	0x3c59b60c	0.013288032
11	0xbacb62e2	-0.001551714
12	0xbd454907	-0.048165347
13	0x3caa7004	0.020805366
14	0xbd742026	-0.05960097
15	0xbd946be1	-0.07247139
16	0xbc3806a4	-0.011232052
17	0x3d5c4870	0.05378002
18	0xbc608b89	-0.013705143
19	0x3c6dbae3	0.014509889
20	0x3dc6c259	0.097050376
21	0xbaaa4713	-0.0012991152
22	0xbe26e35b	-0.16297667
23	0x3b0b8a39	0.0021292104
24	0x3c918777	0.01776479
25	0x3d3c9c5b	0.04604755
26	0x3cc70d50	0.02429834
27	0x3d01fad8	0.031733364
28	0x3d59cb0c	0.053172156
29	0x3c6dbb5d	0.014510003
30	0x3dbace9c	0.09121439
31	0x3d2d8da4	0.042371407
32	0xbd85a3c1	-0.06525374
33	0x3c72b708	0.014814146
34	0x3d5c1408	0.05373004
35	0xbc76ba4d	-0.015059066
36	0xbd200bbd	-0.039073694
37	0xbd703be3	-0.058650862
38	0x3d27da2d	0.040979553
39	0x3ce5a857	0.028034372
40	0xbccf4573	-0.02530167
41	0xbce2e486	-0.02769686
42	0xbd3676d6	-0.044546925
43	0xbd6b4e82	-0.057447918
44	0xbde764af	-0.11298501
45	0xbd3b9fc3	-0.045806658
46	0xbd401544	-0.04689528
47	0xbdb741a6	-0.08948068
48	0xbd9a4f17	-0.075346164
49	0x3d42d21b	0.047563653
50	0xbd33e798	-0.043922037
51	0x3dd802af	0.10547387
52	0xbe592445	-0.21205242
53	0xbd43edc8	-0.047834188
54	0x3ca40848	0.02002348
55	0x3d03f521	0.032216195
56	0x3d725b04	0.05916883
57	0xbd848541	-0.06470729
58	0x3cb53f49	0.022124903
59	0xbd4ae844	-0.049537912
60	0x3ccf1e3a	0.025282968
61	0xbd0139a4	-0.03154911
62	0x3c9ced9b	0.019156268
63	0xbd2a9fb2	-0.041656204
64	0xbdc1c47e	-0.09461306
65	0xbd46ea65	-0.04856338
66	0xbce4e386	-0.027940523
67	0x3d597c7c	0.053097233
68	0x3cf7a544	0.030230172
69	0x3d0d28d0	0.03446275
70	0xbd66ce23	-0.05634893
71	0xbd80366d	-0.06260381
72	0x3d8406a2	0.064465776
73	0x3d3a68d0	0.045510113
74	0xbcf602cc	-0.03003063
75	0x3bbff880	0.005858481
76	0x3d4d9874	0.05019422
77	0x3d807236	0.06271784
78	0xbd65a0c6	-0.05606153
79	0xbd0d7166	-0.034531973
80	0x3cddcc98	0.027075097
81	0x3d5a0b3a	0.053233363
82	0x3c4698f8	0.0121214315
83	0xbb8ce5f0	-0.0042998716
84	0x3b30de80	0.002698809
85	0x3d81d960	0.06340289
86	0xbd600fc8	-0.05470255
87	0x3d020310	0.031741202
88	0xbce46918	-0.027882144
89	0x3d3ff4c0	0.04686427
90	0xbd27be40	-0.04095292
91	0x3d67349b	0.056446653
92	0xbd079fa3	-0.033111226
93	0x3ce82f7b	0.028342953
94	0x3e6c2c23	0.23063712
95	0x3d128409	0.03577045
96	0x3ab51a39	0.0013817019
97	0x3cfc4373	0.030793881
98	0xbd4e854f	-0.0504201
99	0x3d8552c0	0.06509924
100	0xbcd708df	-0.026249347
101	0xbdd228e3	-0.10261705
102	0x3d419ad0	0.04726678
103	0x3ca65033	0.020301914
104	0xbbdc8295	-0.006729434
105	0x3de65c38	0.11248058
106	0xbe0104d6	-0.12599501
107	0xbce26cee	-0.027639832
108	0xbcde2dff	-0.027121542
109	0xbd8b66ca	-0.06806715
110	0xbea464c6	-0.32108134
111	0x3cc327b3	0.023822641
112	0x3ea907ac	0.33013666
113	0xbeacdd2c	-0.3376249
114	0x3d86ffb4	0.0659174
115	0xbe68d5aa	-0.22737756
116	0x3d84f1a1	0.064913996
117	0x3eaab21f	0.3333902
118	0x3c50a754	0.012735207
119	0x3c89be26	0.016814303
120	0x3b79c7f4	0.0038113566
121	0x3d0688ca	0.032845296
122	0xbd77183d	-0.06032585
123	0x3d4494e4	0.047993556
124	0xbadf6c70	-0.0017045867
125	0xbd0ab82a	-0.03386704
126	0xbcebd5a7	-0.0287884
127	0x3d1addc8	0.037809163
128	0x3da133fc	0.07871243
129	0x3c861f9d	0.016372496
130	0x3d48635a	0.048922874
131	0xbd73ebab	-0.059550922
132	0xbcb7b2cf	-0.02242413
133	0xbd0fe79b	-0.035132986
134	0xbd4b3979	-0.049615357
135	0x3c04cd66	0.008105611
136	0xbce7d380	-0.028299093
137	0x3ca83443	0.020532733
138	0xbd525500	-0.051350594
139	0xbdab16e3	-0.08353975
140	0xbd314b88	-0.043284923
141	0xbcc217f6	-0.023693066
142	0x3c0eb182	0.008709313
143	0xbd8b166d	-0.06791387
144	0x3d4d8adc	0.050181255
145	0x3d49ea3e	0.049295656
146	0xbcfb6229	-0.030686455
147	0xbcb24c9b	-0.021765044
148	0xbd959c2e	-0.073051795
149	0x3d2bae55	0.041914303
150	0xbd06bb07	-0.032893207
151	0xbc769ed8	-0.01505252
152	0x3c70d328	0.014698781
153	0x3d0255af	0.031819995
154	0xbce69b36	-0.028150182
155	0x3d403890	0.046928942
156	0x3d3d3490	0.046192706
157	0xbcab75b0	-0.020930141
158	0x3d61e9f0	0.05515474
159	0xbd690dc1	-0.056897882
160	0xbcc73134	-0.024315454
161	0x3a0f9e8b	0.0005478642
162	0xbc0d9923	-0.008642468
163	0x3d13b514	0.03606136
164	0x3d5ca439	0.053867552
165	0xbd4b135c	-0.04957901
166	0x3c718e17	0.0147433495
167	0x3d0398b1	0.03212804
168	0x3db6c736	0.08924715
169	0x3d47e086	0.048798107
170	0xbb1f10e2	-0.0024271538
171	0xbc68e0bb	-0.014213736
172	0xbd45cc08	-0.048290282
173	0x3c50e85f	0.012750714
174	0x3d51ec83	0.051250946
175	0x3cb136a5	0.021632502
176	0x3d53c56b	0.051701944
177	0x3c70b606	0.014691835
178	0x3d1250b0	0.03572148
179	0xbc01d248	-0.00792367
180	0xbd8ea6bc	-0.06965396
181	0xbc47ed25	-0.012202536
182	0x3d89abf5	0.06722251
183	0x3d55e84e	0.052223496
184	0xbbc16974	-0.0059024636
185	0x3d8a2539	0.06745381
186	0x3d59b074	0.053146794
187	0xbd7df717	-0.06200322
188	0xbd3813ef	-0.044940885
189	0xbd1e7a5e	-0.038690917
190	0x3c19b720	0.009382039
191	0x3cce48d0	0.025181204
192	0x3ba2c048	0.0049667694
193	0x3d6812d7	0.056658592
194	0xbc4681ac	-0.012115877
195	0x3d64a929	0.055825386
196	0x3d2a7b0e	0.04162126
197	0xbd5b163e	-0.05348801
198	0xbc119d41	-0.00888759
199	0x3c93fba2	0.018064324
200	0x3d384a09	0.04499248
201	0xbcaeac5a	-0.021322418
202	0x3bc6ec44	0.0060706455
203	0xbd9ccaf0	-0.07655895
204	0x3d0b2079	0.033966515
205	0x3c3c7bcd	0.011504126
206	0x3d7a920c	0.061174437
207	0x3d9b3ca3	0.07579925
208	0x3daf4103	0.08557322
209	0x3c9c0e01	0.019049646
210	0xbcd04a29	-0.025425987
211	0xbdbbdb26	-0.091726586
212	0xbd6cbbac	-0.057796165
213	0x3d4b9e4a	0.049711503
214	0xbd188cb8	-0.037243575
215	0xbcdb167c	-0.02674412
216	0x3d5dc7e6	0.054145716
217	0xbad7e887	-0.0016472497
218	0x3d7a21a5	0.061067242
219	0x3a1fd4df	0.0006097089
220	0x3d953e3c	0.07287261
221	0xbdb9aef7	-0.09066575
222	0x3d49d568	0.049275786
223	0xbc43712f	-0.011928841
224	0x3d7e21e1	0.06204403
225	0x3dd68636	0.104748175
226	0x3da8624d	0.082218744
227	0xbc44b442	-0.012005867
228	0xbd500a34	-0.05079098
229	0xbc37976e	-0.011205537
230	0xbc762fd1	-0.015026049
231	0x3d05e09d	0.03268491
232	0x3ae19105	0.0017209357
233	0x3b87ad00	0.0041404963
234	0x3d383f5c	0.0449823
235	0xbdcd0763	-0.100111745
236	0x3dc03034	0.09384194
237	0x3b815a30	0.0039475188
238	0xbd0ce5ee	-0.034398966
239	0x3d600a64	0.05469741
240	0x3b4e9f00	0.0031527877
241	0xbc89fd1d	-0.016844327
242	0x3c813cf3	0.015776133
243	0x3cdbf6d7	0.0268511
244	0x3d4eed18	0.05051908
245	0xbcc04b9f	-0.023473559
246	0x3cf05c56	0.029340904
247	0xbcf16cba	-0.02947079
248	0xbdf0f372	-0.117651835
249	0xbc9bf144	-0.019035943
250	0xbe0d56a8	-0.13802588
251	0x3cbdb1e0	0.023156106
252	0x3d3c747c	0.046009526
253	0xbdd1b3c4	-0.10239366
254	0xbde4e82f	-0.11177098
255	0x3d132696	0.03592547

deep_input.net.0.bias f4 [128]
0	0xbcbe2b6e	-0.023214068
1	0x3d91e0df	0.07122969
2	0xbaebd390	-0.0017992128
3	0x3bf91422	0.007601277
4	0xbcf89de0	-0.030348718
5	0xbd4d6b38	-0.05015108
6	0xbd6164fd	-0.05502795
7	0x3cfe6a10	0.031056434
8	0xbd6a0edb	-0.057143074
9	0xbac8df9a	-0.0015325428
10	0x3c654c8c	0.013995301
11	0x3ca22afd	0.019795889
12	0xbd68ea23	-0.056863915
13	0xbcb34260	-0.021882236
14	0x3ca29524	0.019846506
15	0x3ca47520	0.02007538
16	0xbba83923	-0.0051337644
17	0x3d18f0c6	0.037338994
18	0xbc2f7e64	-0.010711286
19	0x3d963d1e	0.07335876
20	0x3d641f50	0.055693924
21	0x3d206b38	0.03916475
22	0x3d0a0a6f	0.033701357
23	0x3da9dc89	0.08294017
24	0xbd2f3e58	-0.042784065
25	0xbd9dbf52	-0.07702507
26	0x3c9b68e7	0.01897092
27	0xbacf1efa	-0.0015802078
28	0xbcc1def2	-0.023665879
29	0xbd44fd33	-0.048093032
30	0x3d0963e5	0.033542532
31	0x3d8e06b8	0.06934875
32	0xbcdf42ba	-0.027253497
33	0x3d41169e	0.04714071
34	0x3d47b6ab	0.04875819
35	0x3c103c6f	0.008803471
36	0xbb8bae51	-0.0042627235
37	0x3d4a9ace	0.04946404
38	0x3d7f9f9a	0.062408067
39	0xbd5caf3f	-0.053878065
40	0x3d74b772	0.05974526
41	0x3cdf88c6	0.027286898
42	0xbd143e53	-0.03619225
43	0xbd35d70a	-0.04439453
44	0x3d3c1e87	0.04592755
45	0x3d44a140	0.048005342
46	0xbb4e4c1a	-0.0031478466
47	0x3d292e62	0.041304
48	0x3beb0e4c	0.007173335
49	0x3935d616	0.00017341258
50	0x3d5ac2a2	0.053408273
51	0xb95ad39b	-0.0002086893
52	0x3d865497	0.06559103
53	0x3cfd82d9	0.030946182
54	0x3d323546	0.043507837
55	0xb9c7f7d2	-0.00038140878
56	0x3c75b99d	0.014997867
57	0x3d1dccbe	0.038525335
58	0xbd05baeb	-0.032648962
59	0xbc675c2a	-0.014121095
60	0x3cb07870	0.021541804
61	0xbba27f76	-0.004959042
62	0xbd583874	-0.052788213
63	0xbd106da5	-0.035260815
64	0xbbe3d592	-0.00695295
65	0x3d9eab9c	0.07747576
66	0xbce60c43	-0.028082019
67	0x3c926c59	0.01787393
68	0x3d3c5268	0.045977026
69	0x3d8585bf	0.06519651
70	0x3c46fa97	0.012144706
71	0xba5dddd7	-0.00084635377
72	0x3d083943	0.033257734
73	0x3d08d524	0.03340639
74	0xbd43e16b	-0.047822397
75	0xbccd1759	-0.025035547
76	0xbbfec99e	-0.0077754995
77	0x3a453521	0.00075228704
78	0xbcdeb3a1	-0.027185263
79	0x3c68f289	0.014217981
80	0x3d484dd7	0.04890236
81	0xbd1d8ea2	-0.038466103
82	0xbd0cf5a9	-0.034413967
83	0x3d13d01f	0.03608715
84	0xbd59d176	-0.053178273
85	0x3d0c1daf	0.034207996
86	0x3d085d80	0.033292294
87	0xbd6ca4f3	-0.057774495
88	0xbc2c8d6c	-0.0105317645
89	0x3d6c3563	0.0576681
90	0x3c961c82	0.01832414
91	0x3bc66657	0.0060546803
92	0xbd9341d5	-0.07190291
93	0x3c860a3d	0.016362304
94	0xbd8615fb	-0.06547161
95	0x3d4d5e95	0.05013903
96	0xbd40e54e	-0.047093682
97	0xbd4d3824	-0.050102368
98	0x3d0dcf0b	0.03462128
99	0xbb94e052	-0.0045433426
100	0x3cdb5a2d	0.026776398
101	0x3bb4bb6c	0.0055155065
102	0xbc5d0536	-0.013490012
103	0xbd60e10b	-0.054902118
104	0x3d3d1ba8	0.046168953
105	0x3c6a1b06	0.014288669
106	0x3c427429	0.011868515
107	0x3d0c77c5	0.03429391
108	0x3d08eacb	0.03342704
109	0x3d24fa5e	0.04027783
110	0x3c53d812	0.012929933
111	0x3c140f70	0.009036884
112	0x3c4a964e	0.012364937
113	0xbd1e0718	-0.038580984
114	0x3c0009bd	0.007814822
115	0xbd1b3bc6	-0.0378988
116	0x3d7b720b	0.061388057
117	0x3d10ae12	0.035322256
118	0x3cbfee41	0.023429038
119	0xbd5b87d9	-0.05359635
120	0x3ccb161a	0.024790812
121	0x3c9dab1e	0.019246634
122	0x3c4e8861	0.012605757
123	0x3d9b8727	0.07594138
124	0x3da35626	0.07975416
125	0x3d0ad5f8	0.033895463
126	0x3da1b4a6	0.07895784
127	0x3c11d3e8	0.00890062

deep_input.net.3.weight f4 [64, 128]
0	0x3e2517fc	0.1612243
1	0x3dae418f	0.08508598
2	0x3dbe1217	0.09280794
3	0x3e25f0ea	0.16205183
4	0x3d359148	0.044328004
5	0x3e2f3100	0.17108536
6	0x3e28a07c	0.1646747
7	0xbade1d97	-0.0016946074
8	0xbd003129	-0.031296883
9	0x3e5f7d48	0.21825135
10	0x3dc5afc3	0.096526645
11	0x3dd34cae	0.1031736
12	0xbcc4d15e	-0.024025615
13	0x3cd97076	0.026542883
14	0xbe5a1f5f	-0.2130103
15	0x3e32fee1	0.17480041
16	0x3e25b284	0.1618138
17	0x3bda3986	0.0066596894
18	0x3e310752	0.17287949
19	0xbe108278	-0.1411227
20	0x3dd178da	0.10228129
21	0x3d800d4a	0.06252535
22	0x3e5180da	0.20459309
23	0x3df3717e	0.11886881
24	0x3dc31b4e	0.09526692
25	0x3ca56198	0.020188138
26	0xbb017d38	-0.0019758474
27	0x3d26272c	0.0405647
28	0x3e5440f1	0.20727898
29	0x3e2a9638	0.16658866
30	0x3e1efe77	0.15526758
31	0x3d52d2fc	0.05147074
32	0x3e0b1d00	0.13585281
33	0x3dd2c189	0.1029082
34	0x3e13338c	0.14375132
35	0x3d6ee0dd	0.058319915
36	0x3e0efd37	0.13963781
37	0x3de45f9b	0.11151048
38	0xbe846c13	-0.25863704
39	0xbb1f663e	-0.0024322416
40	0xbd029bf8	-0.031887025
41	0xbb6ca239	-0.0036107434
42	0x3d8be3bf	0.068305485
43	0x3dffb9c6	0.12486605
44	0x3de5fd59	0.11229963
45	0x3df38ba8	0.11891872
46	0x3e0007c4	0.12502962
47	0x3daec4ec	0.085336536
48	0x3e3f03f3	0.1865385
49	0x3e0b6747	0.13613616
50	0x3d9f932d	0.077917434
51	0x3e0ef70c	0.13961428
52	0x3e16ad66	0.14714584
53	0x3e3b10f3	0.18268184
54	0x3cb4566e	0.02201387
55	0x3d0a91d8	0.033830494
56	0x3d079fa2	0.033111222
57	0x3e35a90d	0.17740269
58	0x3e35a1e0	0.17737532
59	0xbe493127	-0.19647656
60	0x3e0a977b	0.13534348
61	0x3d51386a	0.05107919
62	0xbdcd9bf4	-0.10039511
63	0x3e56a11a	0.20959893
64	0x3e0988bd	0.13431068
65	0x3dfa9e92	0.12237276
66	0x3c5913e7	0.013249374
67	0x3e2e6fb5	0.170348
68	0x3c49220a	0.012276182
69	0x3d96da59	0.07365865
70	0x3e192c8c	0.149584
71	0x3d87c78c	0.066298574
72	0x3d3b82a8	0.0457789
73	0x3dbe9d17	0.09307306
74	0x3ce29be8	0.027662233
75	0xbc64ab55	-0.013956864
76	0x3d6fc2de	0.05853545
77	0x3cb42a12	0.021992717
78	0xbca1efcb	-0.019767663
79	0x3e6338e3	0.2218967
80	0x3da816b1	0.08207453
81	0x3dbb1081	0.09134007
82	0xbe218630	-0.15773845
83	0x3d512d8a	0.05106882
84	0x3db770db	0.08957072
85	0x3a21fbd5	0.00061791885
86	0x3dcd7874	0.1003274
87	0x3d00cc0c	0.031444594
88	0x3de6515c	0.11245987
89	0xbbe86852	-0.007092514
90	0x3e6ae950	0.22940564
91	0x3c2f3ad9	0.010695183
92	0x3e271c0f	0.16319297
93	0x3e27bc8c	0.16380519
94	0x3df1cac7	0.11806255
95	0x3d7d1aed	0.061793257
96	0x3e270e3f	0.16314028
97	0x3d9c41c1	0.07629729
98	0x3ca794b7	0.020456655
99	0x3e1bafe0	0.1520381
100	0x3dd4e430	0.10395086
101	0x3dd2926c	0.10281834
102	0x3e38f0bc	0.18060583
103	0x3cc77e2b	0.024352154
104	0x3cbdd7ed	0.02317425
105	0x3cbfb125	0.023399899
106	0x3e1f2a78	0.15543544
107	0x3cf8ca82	0.03037
108	0x3d1b42b3	0.037905406
109	0xbbe03864	-0.00684266
110	0x3e3f09b1	0.1865604
111	0x3da8b3a5	0.082373895
112	0x3cdaf053	0.026725924
113	0x3e761859	0.24032725
114	0x3e0ceaf3	0.13761501
115	0x3e35e391	0.17762591
116	0x3e016675	0.1263674
117	0x3d5c6c36	0.053814135
118	0x3dbd8eeb	0.09255775
119	0x3ded2f9c	0.115813464
120	0x3e4081d0	0.1879952
121	0x3e5ce030	0.21569896
122	0x3d75128d	0.059832145
123	0x3e3de723	0.18545203
124	0x3e515d5c	0.2044577
125	0x3d69bec2	0.057066686
126	0x3da53a21	0.08067728
127	0x3dff263e	0.12458466
128	0x3e252429	0.16127075
129	0x3dede8cf	0.1161667
130	0x3d63623d	0.05551361
131	0x3e5b1989	0.2139646
132	0x3dd996b0	0.106244445
133	0x3e192792	0.14956501
134	0x3d9854c2	0.07438041
135	0x3d035240	0.03206086
136	0xbd535cf5	-0.051602323
137	0x3d93a3f9	0.0720901
138	0x3ddda5b1	0.10822619
139	0x3de122fe	0.10993002
140	0x3dcaf269	0.09909517
141	0xbccbe0f8	-0.024887547
142	0xbe14f7fc	-0.14547724
143	0x3e275b26	0.16343364
144	0x3d6a4d80	0.057202816
145	0x3db6f80d	0.08934031
146	0x3e187994	0.14890128
147	0xbe0a459e	-0.1350312
148	0x3dda526c	0.10660252
149	0xbcb0a861	-0.021564664
150	0x3dc1e50a	0.09467514
151	0x3da8361b	0.08213445
152	0x3e379b23	0.17930274
153	0x3da25aaf	0.07927453
154	0xbc7d4f90	-0.015460864
155	0x3ddc1c97	0.107476406
156	0x3d5aba3e	0.05340027
157	0x3df0ed85	0.11764053
158	0x3d12e051	0.035858456
159	0x3e064f0b	0.1311609
160	0x3daf6cf9	0.08565707
161	0x3e029283	0.12751202
162	0x3e18ad4a	0.14909855
163	0x3e341d66	0.1758934
164	0x3e313a28	0.17307341
165	0x3e079615	0.13240846
166	0xbe243f57	-0.16039787
167	0xbd998f4d	-0.074980356
168	0xbd4ce62e	-0.050024204
169	0x3d6c277a	0.057654835
170	0x3dd10d7c	0.1020765
171	0x3d85bcec	0.065301746
172	0x3d8acf77	0.06777852
173	0x3dfc0e81	0.12307454
174	0xbca7575f	-0.020427404
175	0xbb669364	-0.0035183067
176	0x3dab1aab	0.08354696
177	0x3e28c8de	0.16482875
178	0x3df1368a	0.117779806
179	0x3ddd520b	0.10806664
180	0x3d238862	0.039924987
181	0x3d8564e5	0.06513385
182	0xbbcdc3d9	-0.0062794504
183	0x3d278805	0.040901203
184	0x3cc986a8	0.024600342
185	0x3e26956c	0.16267937
186	0x3e34f10a	0.17670074
187	0xbe85e532	-0.26151425
188	0x3db446fd	0.088026024
189	0x3de0150b	0.10941514
190	0xbd2bbd32	-0.041928478
191	0x3e226765	0.15859754
192	0xbc1aaad9	-0.009440147
193	0x3e3b7b0c	0.18308657
194	0x3d90b515	0.07065789
195	0x3ddd05f8	0.10792154
196	0xbccb834c	-0.02484288
197	0x3dcd314a	0.10019167
198	0x3d50e839	0.051002715
199	0x3d620c6d	0.05518763
200	0xbdb7c22a	-0.08972581
201	0x3b5a2c10	0.0033290423
202	0x3e0cf89a	0.13766709
203	0x3d32ee8d	0.04368453
204	0x3da02c11	0.07820905
205	0x3e1d9bc2	0.15391448
206	0x3df9a924	0.12190464
207	0x3e53b11d	0.20673032
208	0x3e3cf318	0.18452108
209	0x3dd63d42	0.10460903
210	0xbe44f9bd	-0.19235893
211	0x3e195730	0.14974666
212	0x3d6179dd	0.05504786
213	0x3d7f3580	0.06230688
214	0x3dc103a6	0.09424524
215	0x3dd59cb4	0.104302794
216	0x3d95315b	0.072848044
217	0x3cb51ed2	0.022109423
218	0x3e67f3b5	0.2265156
219	0x3dc0bdb3	0.09411182
220	0x3d88b72a	0.06675561
221	0x3e1fe935	0.15616305
222	0x3e175c3f	0.14781283
223	0x3d6d1cdb	0.057888847
224	0x3d4a8bf6	0.049449883
225	0xbd95dc32	-0.073173895
226	0x3d0f48cf	0.034981545
227	0x3c886503	0.016649729
228	0x3e2f87cd	0.17141648
229	0x3e02349a	0.12715378
230	0x3c2bdff5	0.010490407
231	0xbcabb455	-0.020960012
232	0x3e01d06d	0.12677164
233	0x3d098bb0	0.033580482
234	0x3da96a21	0.082721956
235	0x3cf80966	0.030277919
236	0x3e2a840e	0.16651937
237	0x3daa6466	0.08319931
238	0x3e550502	0.20802692
239	0x3dbc0b3f	0.091818325
240	0x3e0d7b79	0.13816632
241	0x3dd8ed8b	0.10592183
242	0x3df91510	0.121622205
243	0x3d49dd80	0.049283504
244	0x3e4d81ac	0.20068997
245	0x3d22e9a7	0.03977361
246	0x3b6a643c	0.003576531
247	0x3d40bbaf	0.04705399
248	0x3d0b829f	0.034060117
249	0x3da3ad4e	0.079920396
250	0x3d188877	0.037239518
251	0x3e36a766	0.17837295
252	0x3e196658	0.14980447
253	0x3dab2d23	0.083582185
254	0x3e370609	0.17873396
255	0x3dc70f94	0.09719768

deep_input.net.3.bias f4 [64]
0	0x3d48c806	0.049018882
1	0xbd04d6ee	-0.032431535
2	0xbcea9050	-0.028633267
3	0xbc88dd00	-0.016706944
4	0xbdd95a90	-0.106129766
5	0x3d943382	0.07236387
6	0xbd395794	-0.045249537
7	0xbdda5f45	-0.106627025
8	0xbc9ff4d7	-0.019525928
9	0x3dc540b4	0.09631482
10	0x3d77085e	0.060310714
11	0xb80e65bf	-3.3950197e-05
12	0xbdc2e2e5	-0.09515933
13	0x3d8284b3	0.063729666
14	0x3db8ff0c	0.09033021
15	0xbd883859	-0.066513725
16	0xbdb2c798	-0.08729476
17	0x3dbae9b3	0.09126606
18	0xbdce963c	-0.10087249
19	0x3cad021d	0.021119172
20	0x3d8a388b	0.06749066
21	0x3dd13219	0.102146335
22	0xbd1454b3	-0.036213588
23	0x3c53a824	0.012918506
24	0xbbc20008	-0.005920414
25	0xbd448c1e	-0.04798519
26	0xbdac7348	-0.08420426
27	0x3d2c270f	0.042029437
28	0x3d8dbd02	0.06920816
29	0xbd18d178	-0.03730914
30	0x3dbd22c1	0.092351444
31	0x3d220c5f	0.03956258
32	0x3b1b8652	0.0023731184
33	0xbd21aa5f	-0.03946912
34	0x3d944905	0.0724049
35	0x3d4fb96d	0.050713945
36	0xbd2a6f7b	-0.041610222
37	0xbc3fdb9d	-0.011710075
38	0xbd7ad8fc	-0.06124209
39	0xbde954c3	-0.1139312
40	0xbc5392f4	-0.012913454
41	0x3e13e812	0.14443997
42	0x3bad74c9	0.005293463
43	0x3c741c8b	0.014899383
44	0x3d76c432	0.0602457
45	0xbd15a88c	-0.036537692
46	0xbd36136f	-0.044452127
47	0xbd13bb3a	-0.036067225
48	0xbdf27ff4	-0.11840811
49	0x3c1b75af	0.009488507
50	0x3cdefb06	0.027219307
51	0xbd437828	-0.04772201
52	0x3d19ea35	0.037576873
53	0xbd415364	-0.047198668
54	0xbda1bd7f	-0.07897472
55	0x3d864c2a	0.06557496
56	0x3ca81b76	0.020520907
57	0x3dd6854e	0.104746446
58	0xbcc2eef1	-0.023795577
59	0x3cee0452	0.029054794
60	0xbd81d8c6	-0.063401744
61	0xbd4d08b8	-0.050057143
62	0xbd1be55c	-0.03806053
63	0x3daf68f4	0.0856494

core.bottom.net.0.weight f4 [96, 96]
0	0x3dea0ed1	0.11428607
1	0xbb983f9f	-0.004646256
2	0x3d16d2ab	0.036822002
3	0x3e379617	0.17928348
4	0x3dcede11	0.101009496
5	0x3d2acfe9	0.041702185
6	0xbe081aed	-0.13291521
7	0xbd4f96b3	-0.050680827
8	0x3cc08720	0.023501933
9	0x3db57f85	0.08862213
10	0x3bb7c218	0.0056078546
11	0x3e0e6401	0.13905336
12	0x3e074ba1	0.13212444
13	0x3e2a981e	0.1665959
14	0xbb612599	-0.0034354685
15	0x3c7a08c5	0.01526088
16	0xbc015c6d	-0.007895571
17	0xbb87ae5c	-0.0041406583
18	0x3d047d75	0.032346208
19	0x3e0a3edf	0.13500546
20	0x3e10195d	0.14072175
21	0x3e080ba2	0.13285688
22	0x3e217e0b	0.15770738
23	0x3d2d9a04	0.04238321
24	0x3d6bab06	0.057536148
25	0x3e133c12	0.14378384
26	0x3e048124	0.12939888
27	0x3e2b6c28	0.16740477
28	0xbe17a82d	-0.14810248
29	0x3e45d7fd	0.19320674
30	0x3dc4ce93	0.096097134
31	0xbb9d3126	-0.0047971187
32	0xbd7f9629	-0.062399063
33	0x3e0f2307	0.13978206
34	0x3def5c34	0.11687508
35	0x3dc43971	0.095812686
36	0x3e33f746	0.17574796
37	0x3e51500c	0.20440692
38	0x3e328b5d	0.17435975
39	0xbd247088	-0.04014638
40	0xbba3a17b	-0.004993615
41	0x3dd2b258	0.102879226
42	0x3d6650c1	0.056229357
43	0x3dba255a	0.090891555
44	0x3d3d7e5d	0.046263088
45	0x3deddee6	0.1161478
46	0x3c611d38	0.013739876
47	0x3be37392	0.0069412673
48	0x3d08466a	0.033270277
49	0x3dac273b	0.0840592
50	0x3e03a83e	0.12857148
51	0xbd8b01ec	-0.06787476
52	0x3d14af52	0.03630001
53	0x3d1170ce	0.03550797
54	0x3db0ba2f	0.08629262
55	0x3d8fc957	0.070208244
56	0x3d6bf208	0.057603866
57	0x3e046241	0.12928106
58	0x3de7181d	0.11283896
59	0x3e0e7e0c	0.1391527
60	0x3cfb943f	0.030710338
61	0xbbd74329	-0.0065692854
62	0x3e301da1	0.17198803
63	0x3d2a165e	0.041525237
64	0x3e0f32fb	0.13984291
65	0x3d984478	0.074349344
66	0x3e079089	0.1323873
67	0x3e063dc5	0.131095
68	0x3e0fabdb	0.14030401
69	0xbb96d06f	-0.004602484
70	0x3db359a1	0.0875733
71	0x3d235f3d	0.03988575
72	0x3df537f8	0.11973566
73	0x3d200266	0.039064787
74	0xbaa92914	-0.0012905919
75	0x3e366212	0.17810848
76	0x3b23c213	0.0024987503
77	0x3c727691	0.014798776
78	0x3e04f237	0.12983023
79	0x3d6791f0	0.05653566
80	0xbd7d634b	-0.06186227
81	0xbaad895c	-0.0013239789
82	0x3e164284	0.14673811
83	0x3d8f6119	0.07000942
84	0xbd3550f6	-0.044266663
85	0x3cbde546	0.023180615
86	0x3cf5717d	0.029961342
87	0xbbec29df	-0.00720714
88	0x3e21009b	0.15722887
89	0xbe55d8f0	-0.20883536
90	0x3cff6837	0.031177623
91	0x3d7ae861	0.06125677
92	0x3bd04835	0.006356264
93	0xbcca8fb3	-0.024726724
94	0xbd3aee96	-0.04563769
95	0x3df2a68d	0.11848173
96	0x3d09cdba	0.03364346
97	0x3de605ed	0.11231599
98	0x3cf5a147	0.02998413
99	0x3e2cbbd9	0.16868533
100	0xbbbfa45a	-0.0058484497
101	0x3dd48196	0.10376279
102	0xbcbf8b0f	-0.023381738
103	0xbd7a66f0	-0.061133325
104	0x3d95cef6	0.07314865
105	0x3d7728b2	0.060341544
106	0x3c223b78	0.009901874
107	0x3d5bf4cd	0.053700257
108	0x3df66237	0.12030452
109	0x3da22065	0.07916335
110	0xbdbb5010	-0.0914613
111	0x3e447016	0.19183382
112	0x3d5f71fd	0.054552067
113	0x3e2c63b2	0.16834906
114	0x3e3188b6	0.17337307
115	0x39bc88fc	0.00035960216
116	0x3d589484	0.05287601
117	0x3da23d7a	0.07921882
118	0x3cce12ca	0.025155444
119	0x3d0c3e6c	0.034239218
120	0x3c102baf	0.0087994775
121	0x3cb3e4c3	0.021959668
122	0x3d8cef6d	0.06881604
123	0x3ce46309	0.027879255
124	0xbd447444	-0.047962442
125	0x3b3cc95a	0.0028806538
126	0x3d3ca534	0.046055987
127	0x3e413af5	0.18870147
128	0x3ab01fa3	0.0013437163
129	0x3e344663	0.17604975
130	0x3d18dc3e	0.037319414
131	0x3e47181c	0.19442791
132	0x3c74193f	0.014898597
133	0x3e0968b6	0.1341885
134	0x3e38d56e	0.18050167
135	0xbdb64169	-0.08899195
136	0x3e11e0f6	0.14245972
137	0x3e1762b6	0.14783749
138	0xbda27cbb	-0.07933947
139	0x3e00dfa0	0.12585306
140	0x3d309062	0.043106444
141	0x3bcb6953	0.006207624
142	0x3cc657bd	0.024211759
143	0x3cba982b	0.022777637
144	0xbd1b0e60	-0.037855506
145	0x3ce8691f	0.028370438
146	0x3ce62838	0.02809535
147	0xbd39939c	-0.045306787
148	0x3e104d94	0.14092094
149	0x3e008b4b	0.12553136
150	0x3e14a1b5	0.14514811
151	0x3e175cea	0.14781538
152	0x3d6ddd06	0.058072113
153	0x3dfb8f54	0.12283197
154	0x3dd02122	0.101625696
155	0x3de98295	0.1140186
156	0x3dc98e24	0.09841564
157	0x3de7b354	0.11313501
158	0x3dfe7f53	0.12426629
159	0x3e017abe	0.12644479
160	0x3df90fa2	0.12161185
161	0x3d35d6d1	0.044394318
162	0xbbc53496	-0.0060182316
163	0x3d51782b	0.05113999
164	0x3d559f0f	0.052153643
165	0xbcd6509b	-0.026161483
166	0x3e7f54b9	0.24934663
167	0x3c16ee6f	0.00921212
168	0x3e2e75b1	0.17037083
169	0x3dfd94e4	0.12381914
170	0x3d1716a1	0.036886815
171	0x3e24f1d6	0.16107878
172	0x3e2f8e84	0.17144209
173	0xbc1ed1b8	-0.0096935555
174	0x3e4a2a60	0.19742727
175	0x3e1f0941	0.15530874
176	0xbd880706	-0.066419646
177	0x3b6de7e1	0.003630154
178	0x3c2a9c19	0.010413193
179	0x3df4bd32	0.11950149
180	0x3d211602	0.03932763
181	0x3e219d0c	0.15782565
182	0xbd0ebd85	-0.03484871
183	0x3c5d706b	0.013515572
184	0xbb021753	-0.0019850328
185	0xbe1be18d	-0.1522276
186	0xbce2e03c	-0.027694814
187	0x3e0d39fc	0.1379165
188	0x3c1f3966	0.009718275
189	0x3d190b47	0.03736427
190	0xbe6a3b04	-0.22874075
191	0x3d9980d1	0.07495273
192	0x3db7fc94	0.08983722
193	0x3e3bfc16	0.18357882
194	0x3dba5ac7	0.09099346
195	0x3e3c8ced	0.18413134
196	0xbcc9551d	-0.024576718
197	0x3e3afa39	0.18259515
198	0x3d2189ed	0.039438177
199	0xbd18987d	-0.0372548
200	0x3dc5ab91	0.09651864
201	0x3e517f64	0.20458752
202	0x3d926d9b	0.07149812
203	0x3e1c0143	0.15234856
204	0x3e25ae83	0.16179852
205	0x3c156298	0.009117745
206	0x3caa850d	0.020815397
207	0x3dda7897	0.10667532
208	0x3d8f67ab	0.07002195
209	0x3cad194a	0.021130223
210	0x3e0976e5	0.13424261
211	0x3e44b591	0.19209887
212	0x3d53b23a	0.051683642
213	0x3df0325a	0.11728354
214	0x3c97956c	0.018503867
215	0x3e3e92bb	0.1861066
216	0x3e025b4d	0.12730141
217	0x3e37dd3a	0.17955485
218	0x3dc87c0b	0.09789284
219	0x3dd48a95	0.10377995
220	0xbb89b5bf	-0.004202574
221	0x3df0a611	0.11750425
222	0x3e124ba2	0.14286664
223	0x3e35f862	0.17770532
224	0xbdb149cf	-0.08656656
225	0x3e3db058	0.18524301
226	0x3e083575	0.13301642
227	0x3e16fe45	0.14745434
228	0x3cfcf53d	0.030878657
229	0x3daca010	0.08428967
230	0x3cea4337	0.028596504
231	0xbd1a136e	-0.037616186
232	0x3e1795d1	0.14803244
233	0x3da79be5	0.081840314
234	0x3dab33fb	0.08359524
235	0x3e58e9d2	0.21182945
236	0x3e1ed5e2	0.15511277
237	0x3ddc1266	0.10745697
238	0x3e473abb	0.19455998
239	0xbda396d1	-0.0798775
240	0xbd4ad332	-0.049517818
241	0x3e4b7a21	0.19870807
242	0x3d39af09	0.045332942
243	0xbdb331a1	-0.087497
244	0x3dc52a9c	0.09627268
245	0x3bb37948	0.0054771043
246	0x3e3f57ee	0.18685886
247	0x3de657f9	0.11247248
248	0x3e679cf5	0.22618468
249	0x3dc9c3c3	0.09851792
250	0x3cf0d49a	0.029398251
251	0x3d3e8161	0.046510104
252	0x3dd8c4d0	0.10584414
253	0x3e3b1724	0.18270546
254	0x3e4ff847	0.20309554
255	0x3e51a24e	0.2047207

core.bottom.net.0.bias f4 [96]
0	0xbd93a940	-0.07210016
1	0xbd48716f	-0.048936304
2	0x3d978361	0.073981054
3	0x3d2561d3	0.040376496
4	0x3e42f1fa	0.19037619
5	0x3df07e65	0.11742858
6	0x3d4f477b	0.05060528
7	0x3d7e7600	0.062124252
8	0xbdaf636c	-0.08563885
9	0xbd2a4e42	-0.04157854
10	0xbda33104	-0.07968333
11	0xbd304f95	-0.043044645
12	0x3d1092fd	0.03529643
13	0xbcc44f06	-0.023963463
14	0xbdc2009c	-0.094727725
15	0xbca0c321	-0.019624295
16	0xbdad1c3d	-0.08452652
17	0xbce84b9c	-0.028356366
18	0xbd87df8b	-0.06634434
19	0x3c4cd547	0.012502021
20	0xbccad966	-0.024761867
21	0xbd93be93	-0.072140835
22	0x3d56af52	0.052413292
23	0x3e002fc7	0.12518226
24	0xbd50d16e	-0.050980978
25	0x3ca07552	0.019587193
26	0xbdc07117	-0.0939657
27	0xbd223fd7	-0.039611664
28	0xbc096c18	-0.008387588
29	0xbdc5a76a	-0.09651072
30	0x3dec2681	0.115307815
31	0x3d5dee67	0.054182436
32	0x3d7ce1cb	0.06173877
33	0xbd060f3b	-0.03272937
34	0x3d8ca195	0.06866757
35	0x3b50b6e0	0.0031847283
36	0x3d805bf2	0.06267537
37	0x3d3b827f	0.045778748
38	0xbd8fc35b	-0.07019683
39	0x3d70a8cb	0.058754724
40	0x3e2e5af2	0.1702688
41	0x3de42752	0.11140312
42	0x3df7736b	0.12082561
43	0x3cf832c2	0.03029764
44	0x3d261b2a	0.04055325
45	0x3dc43ff9	0.09582514
46	0x3b51e3b8	0.00320266
47	0x3d3d49b6	0.046212874
48	0x3a4c792c	0.00078000384
49	0xbd7c1f22	-0.061553128
50	0x3d0ef5c5	0.034902353
51	0x3de4499c	0.111468524
52	0x3d1bcd2e	0.03803747
53	0x3d508869	0.05091134
54	0xbc05b176	-0.008159986
55	0x3e14803e	0.14502046
56	0xbdca5686	-0.09879784
57	0x3da69333	0.08133545
58	0x3cb53096	0.022117894
59	0x3d5e1a41	0.054224256
60	0xbc7d347c	-0.015454408
61	0x3dedade0	0.1160543
62	0xbd553f98	-0.0520626
63	0x3d759f51	0.05996639
64	0xbd310a77	-0.04322287
65	0x3dd7103a	0.10501142
66	0x3e263f83	0.16235165
67	0x3df2d62e	0.11857258
68	0xbd125e89	-0.035734687
69	0x3d9ac6a0	0.07557416
70	0xbc8353e2	-0.01603121
71	0x3d39ff62	0.045409568
72	0x3da43386	0.0801764
73	0xbd8571ca	-0.06515844
74	0xbdf73bc4	-0.12071946
75	0x3d1fa0e0	0.03897178
76	0x3d1a9955	0.037743885
77	0xbda3ac3b	-0.07991835
78	0x3da0dc40	0.07854509
79	0x3dafe1c9	0.08587987
80	0xbd3fac57	-0.046795215
81	0xbde6008c	-0.11230573
82	0xbc69edb8	-0.014277868
83	0xbd5f60b4	-0.054535583
84	0x3c266f67	0.010158396
85	0x3c1a862a	0.009431401
86	0x3da1ddf4	0.07903662
87	0x3dcedd0e	0.101007566
88	0xbcc9232c	-0.024552904
89	0xbd88bc21	-0.06676508
90	0xbc149ca3	-0.009070548
91	0xbd981360	-0.074255705
92	0xbb740135	-0.0037232165
93	0xbd859f1e	-0.0652449
94	0xbcb4c93f	-0.022068618
95	0xbd6bf189	-0.057603393

core.tower_reg.net.0.weight f4 [64, 96]
0	0x3e35e455	0.17762883
1	0x3cff1502	0.031137947
2	0x3d9f1a15	0.07768647
3	0x3e417c27	0.18895017
4	0x3e3f9ccb	0.18712156
5	0x3e30e536	0.17274937
6	0x3e24b8c8	0.16086113
7	0x3d9d6984	0.07686141
8	0x3e40207d	0.18762393
9	0x3de09812	0.10966505
10	0x3e18b7f9	0.1491393
11	0x3de67fb9	0.1125483
12	0x3d3637ff	0.044486996
13	0x3d9a57d2	0.07536282
14	0x3dd6bd98	0.10485381
15	0x3d96eb10	0.07369053
16	0x3e273fe2	0.16332963
17	0x3d862f7e	0.06552027
18	0x3d7dce85	0.06196453
19	0x3dbd1dcf	0.09234201
20	0x3e1c93a8	0.15290701
21	0x3e41bb66	0.18919143
22	0x3ce8c4cc	0.028414153
23	0x3e4ac3f0	0.19801307
24	0x3e15a7b7	0.1461476
25	0x3bf14fa0	0.0073642284
26	0xbdbd3afd	-0.09239767
27	0x3da0a1ab	0.07843336
28	0x3dbf9c35	0.09355966
29	0x3d2ef729	0.04271618
30	0x3e252007	0.16125499
31	0x3d7f7e2b	0.062376183
32	0x3d842796	0.06452863
33	0x3e4a5285	0.19758041
34	0x3d809518	0.062784374
35	0xbd9e6093	-0.07733264
36	0x3dd032ca	0.10165937
37	0x3e00f88f	0.12594818
38	0xbd9ed09e	-0.07754634
39	0x3c2323fe	0.009957312
40	0x3db3df4f	0.08782827
41	0x3e512705	0.20425041
42	0x3de5f68d	0.112286665
43	0x3c95699a	0.018238831
44	0x3d51c386	0.051211856
45	0x3deef968	0.11668664
46	0x3cbd7727	0.023128105
47	0x3d42aff0	0.04753107
48	0x3dc229ba	0.09480615
49	0x3cf8a36f	0.030351369
50	0x3db96bc5	0.090537585
51	0x3dfa4d32	0.12221755
52	0x3e175aae	0.14780685
53	0x3e036f23	0.12835364
54	0x3e26c63a	0.16286555
55	0x3db4f859	0.08836431
56	0xbd7132af	-0.058886226
57	0x3ddedcd9	0.10881967
58	0x3e4653be	0.19367883
59	0x3d1e11c2	0.038591154
60	0x3dadd3e2	0.08487679
61	0x3e01a5ba	0.12660876
62	0x3e0b8623	0.13625388
63	0x3d1b4186	0.037904285
64	0xbd9b9522	-0.07596804
65	0x3e4be620	0.19912004
66	0x3de56f4f	0.11202871
67	0x3df6301f	0.12020897
68	0x3e10aec0	0.14129162
69	0x3c84ad8c	0.016196035
70	0x3e23eb8e	0.16007826
71	0x3d684203	0.05670358
72	0xbd43417b	-0.04766987
73	0x3c4676f0	0.012113318
74	0x3da5d3be	0.08097027
75	0x3e5e8a41	0.21732427
76	0x3e5c5795	0.21517785
77	0xbd38181d	-0.04494487
78	0x3dd12009	0.10211188
79	0x3e3f5223	0.18683676
80	0x3db0e92f	0.08638226
81	0x3e180184	0.14844328
82	0x3e331390	0.17487931
83	0x3cecf118	0.028923556
84	0xbdfbc312	-0.12293066
85	0x3e8631cb	0.26209864
86	0x3d91574a	0.07096727
87	0x3dfde35e	0.123968825
88	0x3e3e851f	0.18605469
89	0x3dc6cbfc	0.09706876
90	0x3d979ee7	0.07403355
91	0x3d6931e6	0.056932352
92	0x3e051804	0.12997442
93	0x3d91419e	0.070925936
94	0x3d292f06	0.04130461
95	0x3de5855a	0.112070754
96	0x3cc2dfa9	0.02378829
97	0xbdc9e86c	-0.09858784
98	0x3d3b2ac8	0.045695096
99	0xbddc6d34	-0.10763016
100	0xbd09a1c4	-0.033601537
101	0xbca7d980	-0.020489454
102	0xbd582fd7	-0.05278
103	0xbda897a9	-0.08232052
104	0xbd21e3d4	-0.039523914
105	0xbc526fdd	-0.012844053
106	0x3c072453	0.008248406
107	0xbd13c902	-0.036080368
108	0x3ca990ae	0.020698871
109	0x3c0a75c8	0.008450933
110	0xbde1c6ad	-0.110242225
111	0xbda894bc	-0.08231494
112	0xbd54b345	-0.051928777
113	0x3bedd5a5	0.0072581344
114	0xbd856e8c	-0.06515226
115	0x3d4fffc5	0.05078103
116	0xbc39d2d3	-0.011341768
117	0x3d30ac73	0.04313321
118	0x3cb1e331	0.021714779
119	0xbc45e763	-0.012079093
120	0x3c77ca54	0.015123922
121	0xbd638f60	-0.055556655
122	0xbc68cd53	-0.014209109
123	0xbd411321	-0.047137383
124	0x3d1d2ca9	0.03837267
125	0x3d2b7818	0.041862577
126	0xbd0d0c55	-0.03443559
127	0x3d62a0ae	0.055329017
128	0xbdbd056f	-0.09229552
129	0xbdc935b1	-0.09824694
130	0xbd4e85cf	-0.05042058
131	0x3d68857b	0.056767922
132	0xbb59ccf9	-0.0033233745
133	0xbdb4bc43	-0.088249706
134	0x3d9f66ce	0.0778328
135	0xbcb22885	-0.021747837
136	0x3cd49fea	0.02595516
137	0xbd70e452	-0.058811493
138	0xbcf3870f	-0.029727487
139	0xbd2ad8f0	-0.041710794
140	0xbdc79176	-0.09744541
141	0x3d1125fd	0.03543662
142	0xbd3a766d	-0.045523096
143	0x3d241fd4	0.040069416
144	0xbd92fc3e	-0.07177018
145	0xbde90c74	-0.11379328
146	0xbdc4ba26	-0.096058175
147	0x3bdf4348	0.0068134405
148	0x3bc2d7ad	0.0059461207
149	0xbdb058f9	-0.0861072
150	0x3d715769	0.05892125
151	0x3d524c38	0.05134222
152	0xbd0100c6	-0.03149488
153	0x3dcf9191	0.101351865
154	0xbd8bf0e9	-0.06833059
155	0x3dbec37b	0.09314629
156	0xbdd82ee9	-0.105558224
157	0x3d696781	0.056983475
158	0x3d90cded	0.07070527
159	0x3c8c05a7	0.017092539
160	0x3dab30dc	0.083589286
161	0xbd8eaf40	-0.0696702
162	0x3d427e47	0.04748371
163	0x3c6ea2ec	0.014565211
164	0x3ce6bcef	0.028166262
165	0x3d53df5b	0.05172668
166	0xbe038110	-0.12842202
167	0x3c68230e	0.014168514
168	0x3b5765a4	0.003286698
169	0x3d0e5d3f	0.034756895
170	0x3c4dcc15	0.012560864
171	0xbcf22b88	-0.029561773
172	0x3d61d95a	0.055138923
173	0x3d4361a3	0.047700536
174	0xbb3da10e	-0.0028935107
175	0xbd527773	-0.051383447
176	0x3d6b7e4f	0.057493504
177	0xbda73e2d	-0.08166156
178	0xbb634fbd	-0.003468498
179	0x3d9b7b43	0.0759187
180	0x3ccc2ae0	0.024922788
181	0xbc8f3f55	-0.017486254
182	0x3da6ee7f	0.08150958
183	0xbd9528eb	-0.07283195
184	0x3d1e913f	0.038712736
185	0xbd627986	-0.055291675
186	0x3d1038e3	0.0352105
187	0x3cc4b482	0.024011854
188	0xbcd6e2b0	-0.02623114
189	0xbdbda76c	-0.09260449
190	0x3d5caaea	0.053873934
191	0xbe07b65b	-0.13253157
192	0xbc44c3dc	-0.012009587
193	0xbc9909ac	-0.01868137
194	0xbdc27fa7	-0.09497004
195	0xbca36142	-0.019943837
196	0xbdae5d20	-0.08513856
197	0xbd1ef1b1	-0.038804714
198	0x3d97ffde	0.0742185
199	0xbb9f51f7	-0.004862066
200	0x3cd87f44	0.026427872
201	0xbd882020	-0.06646752
202	0x3d2bae8e	0.041914515
203	0x3d922a8d	0.07137022
204	0xbc88c3b6	-0.016694885
205	0xbd8c5e60	-0.06853938
206	0x3d125500	0.035725594
207	0x3cbb04c9	0.02282943
208	0xbdee8f1a	-0.11648388
209	0xbd5e0c50	-0.05421096
210	0xbd15921c	-0.036516294
211	0xbd9588b6	-0.07301466
212	0xbdcba37d	-0.09943292
213	0xbc3662fd	-0.011131999
214	0xbd3a086b	-0.045418184
215	0x3ae1432a	0.0017186154
216	0xbd2b84bb	-0.04187463
217	0x3d96ce4d	0.073635675
218	0xbbca59d8	-0.006175261
219	0x3bb65e03	0.0055654063
220	0xbdcc0926	-0.099626824
221	0xbc82f87d	-0.01598763
222	0x3ac9d8d0	0.0015399698
223	0xbd4f4d0f	-0.0506106
224	0x3d90c0d0	0.07068026
225	0x3d3faab9	0.046793673
226	0xbcb6e515	-0.022326032
227	0xbd523719	-0.051322076
228	0x3d20bae0	0.039240718
229	0xbd8ecc4d	-0.06972561
230	0x3da552f5	0.080724634
231	0x3cb43842	0.021999482
232	0xbde6d44b	-0.112709604
233	0x3cff4805	0.031162271
234	0xbc260278	-0.0101324245
235	0xbdfc888c	-0.12330732
236	0xbdde06e5	-0.10841159
237	0xbdacbfd7	-0.08435028
238	0xbc0834dc	-0.008313384
239	0xbdae819e	-0.08520816
240	0x3d995c8e	0.074883565
241	0x3d583d72	0.052792974
242	0x3d937c30	0.07201421
243	0x3d0cef1f	0.03440773
244	0x3bcc317c	0.006231485
245	0xbcd7a407	-0.026323332
246	0xbcd16fc2	-0.025565986
247	0xbd7cbfe5	-0.061706442
248	0x3d8ca081	0.06866551
249	0x3d00e64d	0.031469632
250	0xbd616a05	-0.05503275
251	0x3d2db108	0.04240516
252	0x3c05418a	0.0081333015
253	0x3d6126c5	0.054968614
254	0xbd5faf13	-0.054610323
255	0xbd960a29	-0.07326157
