checkpoints/django_mmoe_best.pt (torch, 336718 bytes, 40 tensors)

embedding.embs.0.weight f4 [3, 8]
1.9269153 1.4872841 0.9007172 -2.105521 0.6784184 -1.2345449 -0.043067478 -1.604667
0.54747224 -0.81421447 -0.6737321 0.4664782 -1.230652 0.27231202 -2.4357595 -0.40768012
-0.53384817 -0.2544082 1.0492399 -0.92767906 -0.45266676 -0.2813956 -0.6716906 0.5703093
00000000: 29a5 f63f 535f be3f 6795 663f dbc0 06c0
00000010: d4ac 2d3f 9105 9ebf 8667 30bd ba65 cdbf
00000020: 2427 0c3f 5c70 50bf b579 2cbf 3bd6 ee3e
00000030: 0186 9dbf 7b6c 8b3e 7ce3 1bc0 73bb d0be
00000040: 46aa 08bf cb41 82be 7e4d 863f 607c 6dbf
00000050: f0c3 e7be 1613 90be eaf3 2bbf caff 113f

embedding.embs.1.weight f4 [3, 8]
0.034912344 0.321103 1.5736002 -0.84546745 1.3123076 0.6871596 -1.0891753 -0.35528663
1.4918395 0.8078231 2.2331035 0.5227165 0.33709824 -0.1672241 -1.034848 1.2498431
-0.124007024 0.5161712 0.056214347 0.4344479 0.55957067 -0.6256309 -2.192799 -0.7501506
00000000: 3f00 0f3d 9d67 a43e bb6b c93f 8e70 58bf
00000010: b2f9 a73f b1e9 2f3f 196a 8bbf 21e8 b5be
00000020: 99f4 be3f 7fcd 4e3f 2beb 0e40 c0d0 053f
00000030: 2498 ac3e cb3c 2bbe e675 84bf dcfa 9f3f
00000040: 65f7 fdbd cc23 043f 0441 663d f56f de3e
00000050: 0640 0f3f 5929 20bf d256 0cc0 df09 40bf

embedding.embs.2.weight f4 [3, 8]
0.010868144 -0.33874235 -1.3406795 -0.58537054 0.5361881 0.5246226 1.1412016 0.051643595
-0.66054195 0.5584419 0.18313111 -0.33745074 -0.30603006 0.5891032 -0.87265164 0.41334298
-0.9884479 0.107963145 0.36431736 0.61784893 -0.19214599 0.25731742 4.026682 1.3076097
00000000: 4d10 323c a36f adbe 639b abbf d8da 15bf
00000010: a043 093f ab4d 063f e512 923f 3c88 533d
00000020: 4719 29bf 0cf6 0e3f b986 3b3e 58c6 acbe
00000030: f9af 9cbe 78cf 163f 1966 5fbf b1a1 d33e
00000040: ec0a 7dbf c81b dd3d ce87 ba3e 592b 1e3f
00000050: ebc1 44be 1cbf 833e 94da 8040 c15f a73f

embedding.embs.3.weight f4 [3, 8]
1.0310916 -0.704765 1.0131483 -0.33081785 0.51769304 0.38777846 -0.5796773 -0.16911523
-0.98814744 0.95259875 1.5826995 1.4252282 0.22227623 -0.17812198 -0.6978141 0.08579874
0.29811934 1.0193985 -0.4383896 1.6764746 -2.4505606 -0.4634462 -1.230898 0.84132504
00000000: cffa 833f 7b6b 34bf d8ae 813f f560 a9be
00000010: 8887 043f e68a c63e bb65 14bf 8b2c 2dbe
00000020: 3bf7 7cbf 83dd 733f e695 ca3f e16d b63f
00000030: 619c 633e 9c65 36be f2a3 32bf 40b7 af3d
00000040: 19a3 983e a67b 823f 9a74 e0be b896 d63f
00000050: fcd5 1cc0 d248 edbe 118e 9dbf 1461 573f

embedding.embs.4.weight f4 [3, 8]
-1.9005532 0.22857653 0.024859404 -0.34595025 0.2868328 -0.7308424 0.17482026 -1.0939293
0.680499 1.4997337 -1.4253597 -0.79149103 -0.93759054 -1.239941 -0.73874515 -0.57092875
-1.5011681 -0.7115484 0.4478187 0.61997074 -0.09285924 0.19200419 -0.7538776 -0.7560066
00000000: 5445 f3bf f70f 6a3e f3a5 cb3c 6420 b1be
00000010: c0db 923e 7d18 3bbf 1504 333e e005 8cbf
00000020: 2f35 2e3f 46f7 bf3f 3072 b6bf 289f 4abf
00000030: ef05 70bf 63b6 9ebf 671e 3dbf 6328 12bf
00000040: 4726 c0bf 0928 36bf 7e48 e53e 67b6 1e3f
00000050: fc2c bebd bf9c 443e 1ffe 40bf a689 41bf

embedding.embs.5.weight f4 [3, 8]
-0.15933107 -0.4249437 0.944231 -0.18493453 1.0607991 0.20830345 -0.5778481 0.32546145
0.011764261 1.6499 0.14896771 -1.0159698 -0.53946596 0.0750651 0.3700213 1.9783962
-0.07084478 -0.8956931 -2.0444074 -1.0562409 0.027010167 0.07546003 0.18335399 0.41955113
00000000: af27 23be 3892 d9be 1fb9 713f 7a5f 3dbe
00000010: 44c8 873f 804d 553e daed 13bf e2a2 a63e
00000020: e3be 403c ec2f d33f fe8a 183e 4c0b 82bf
00000030: 711a 0abf bbbb 993d 6f73 bd3e 163c fd3f
00000040: 1117 91bd 254c 65bf 92d7 02c0 e732 87bf
00000050: 6d44 dd3c ca8a 9a3d 26c1 3b3e 68cf d63e

embedding.embs.6.weight f4 [2, 8]
-0.9291303 0.27619088 -0.5388753 0.46258232 -0.8718891 -0.02711836 -0.35324576 1.4638569
1.234387 -0.6596141 0.82754314 0.51701653 0.5120903 0.5480346 0.48150855 0.19505563
00000000: 7cdb 6dbf e468 8d3e bbf3 09bf 97d7 ec3e
00000010: 2034 5fbf 5327 debc a1dc b4be aa5f bb3f
00000020: 6500 9e3f 78dc 28bf ded9 533f 325b 043f
00000030: 5a18 033f ff4b 0c3f 4a88 f63e aabc 473e

embedding.embs.7.weight f4 [3, 8]
-0.6854816 0.563559 -1.5071751 -1.610666 -1.4790466 0.43227428 -0.1250254 0.7821184
0.83865446 -0.5914996 -1.0275741 -0.24601558 0.69853973 0.86513877 -0.065339364 0.3364244
-0.48569608 0.2952404 0.38914907 0.71698064 0.26080295 0.12389139 -0.20207252 2.1431313
00000000: b97b 2fbf 6745 103f 1deb c0bf 4e2a cebf
00000010: 6651 bdbf 0e53 dd3e a906 00be e938 483f
00000020: 0fb2 563f 856c 17bf 8c87 83bf 82eb 7bbe
00000030: 80d3 323f bc79 5d3f a5d0 85bd d23f ac3e
00000040: 28ad f8be c029 973e 8c3e c73e 0b8c 373f
00000050: f787 853e c5ba fd3d 19ec 4ebe 1029 0940

embedding.embs.8.weight f4 [3, 8]
0.5229573 0.9717304 -0.27785417 -0.61159784 -0.5571883 -0.9683471 0.8712792 -0.095640846
0.40857548 -0.72313786 1.0666147 -1.4666641 0.4515566 0.3593678 -0.014350663 0.07106334
0.357036 0.6792077 -1.7075655 -0.8744022 0.4580196 0.26685244 -0.57656825 0.1050425
00000000: 88e0 053f 53c3 783f e742 8ebe ad91 1cbf
00000010: e4a3 0ebf 98e5 77bf 270c 5f3f 59df c3bd
00000020: ce30 d13e 901f 39bf d586 883f a6bb bbbf
00000030: 6d32 e73e 0eff b73e 0b1f 6bbc a889 913d
00000040: 6ccd b63e 8ee0 2d3f 8291 dabf d3d8 5fbf
00000050: 8c81 ea3e e2a0 883e fa99 13bf 8620 d73d

embedding.embs.9.weight f4 [3, 8]
0.8853808 0.18244399 0.786381 -0.057920296 0.5666653 -0.70976233 -0.48750544 0.050095998
0.84321487 -0.692497 0.32710877 0.2982584 0.41751376 -1.2581553 0.8776731 -0.00031449774
0.17036685 0.009157644 -0.08709261 -1.1842936 1.5200329 0.5475101 0.9561328 0.49506333
00000000: 51a8 623f 99d2 3a3e 4450 493f d53d 6dbd
00000010: fa10 113f fcb2 35bf 509a f9be 7631 4d3d
00000020: eedc 573f 7c47 31bf cd7a a73e 53b5 983e
00000030: 5dc4 d53e 3c0b a1bf 2faf 603f 2ce3 a4b9
00000040: a674 2e3e f109 163c 9c5d b2bd ef96 97bf
00000050: 7090 c23f 9f29 0c3f 1fc5 743f f178 fd3e

embedding.embs.10.weight f4 [3, 8]
-1.3350669 1.6516354 1.9810057 -0.1047928 0.49028718 -0.43746585 -1.2201113 -0.5854152
0.04853543 -1.0670875 -0.7758489 -0.4195258 0.98268056 -0.14828669 0.17171712 -0.04771503
0.97356015 -1.6192411 0.903399 1.1507931 -0.039378412 -0.30002987 -0.091202736 0.7794025
00000000: 79e3 aabf ca68 d33f 9891 fd3f 9c9d d6bd
00000010: ec06 fb3e 86fb dfbe 9b2c 9cbf c5dd 15bf
00000020: 16cd 463d 5396 88bf 099e 46bf 16cc d6be
00000030: f490 7b3f 77d8 17be 9dd6 2f3e d670 43bd
00000040: 3d3b 793f 4b43 cfbf 2845 673f 304d 933f
00000050: 424b 21bd 849d 99be 80c8 babd ec86 473f

embedding.embs.11.weight f4 [3, 8]
0.68387526 -1.3245894 -0.51608175 0.60018426 -0.47022083 -0.60864353 -0.046192024 -1.6457398
0.69888747 1.4499587 -1.1158297 2.0985057 2.3344789 -0.6028579 -0.33712727 -1.6845466
-0.5627656 1.3559467 0.23276107 0.11583024 1.5453557 -0.43564314 -0.4081932 -1.3553511
00000000: 7312 2f3f 258c a9bf ef1d 04bf ada5 193f
00000010: c9c0 f0be 10d0 1bbf d933 3dbd 9aa7 d2bf
00000020: 4aea 323f 3f98 b93f 82d3 8ebf eb4d 0640
00000030: 1a68 1540 e554 1abf f29b acbe 399f d7bf
00000040: 6811 10bf a98f ad3f eb58 6e3e 6838 ed3d
00000050: 37ce c53f 9e0c dfbe b3fe d0be 257c adbf

wide.weight f4 [32, 206]
-0.041977093 0.14534228 0.10390442 0.0019256516 0.030870503 -0.006935041 -0.020197595 0.029278185
0.04906704 -0.03559481 -0.02548791 0.04911152 0.020821653 0.09613758 0.022203967 0.029715609
0.052634664 0.01991021 -0.026927574 0.11543982 -0.019112518 -0.0122051425 -0.045915823 0.04093637
0.049447235 -0.0069225496 0.02458271 0.0093984455 -0.017114256 -0.0832596 0.13870682 -0.011704043
0.104340985 0.06777698 0.020839669 0.10103303 0.09809142 0.04918458 -0.0036791149 0.05082237
0.0024125318 0.064780205 -0.16032274 -0.029452004 -0.020093102 -0.033660863 0.011847161 -0.04773692
-0.02967073 -0.019855361 -0.121763974 -0.034039397 -0.009785204 0.06381601 -0.039291993 -0.108980626
0.021685444 -0.053151816 -0.04036139 -0.11537658 -0.0056034233 -0.10459664 0.064967014 0.03201546
0.019915894 0.06105161 -0.006439738 0.043695897 0.050374836 -0.060491063 0.02680917 0.013152853
0.014980577 0.010171704 0.019057803 -0.033517513 -0.0089140795 0.06619799 0.04680997 -0.0026175156
-0.06552989 0.003053628 -0.047445673 0.05665773 -0.04229778 -0.0050305277 -0.015463479 0.01239863
0.14761129 0.04589678 0.14362286 0.103116274 0.09328311 0.09563415 0.3249261 0.019528667
-0.030998118 0.021917032 0.007820701 0.019381082 0.0873946 0.027211856 0.08839501 0.09049534
0.078669704 0.049324833 -0.16214336 -0.05993385 -0.016356183 -0.02674954 -0.21349774 -0.00611957
0.08223939 -0.24409251 -0.010978071 -0.21803838 -0.015407773 0.19229458 0.045356918 -0.0073634204
-0.028495142 0.032417953 -0.018365078 -0.045760043 0.015471426 -0.11916495 0.010310625 0.06736879
0.022769986 0.022639146 -0.047740944 0.017476324 -0.016239528 0.035805922 0.014094995 0.0690974
-0.033307157 0.014429363 -0.035593025 -0.076477766 -0.013708116 -0.03614665 0.061215598 0.024021372
-0.055637468 0.023721559 -0.051260307 -0.0322896 -0.01957449 -0.07060425 -0.07323333 -0.009339122
0.06598971 0.06772014 0.036920644 -0.03032055 -0.02975168 0.06500198 0.021607427 -0.011119797
0.022886723 -0.03808895 -0.0068071806 0.08461309 -0.01382489 0.001999087 -0.08905731 -0.0007338577
0.054348532 -0.0129091125 -0.0043775206 0.024479665 -0.09378674 0.025498785 -0.044401035 -0.0744913
0.06325457 0.031440705 -0.015098814 -0.02383825 -0.0768571 -0.019550279 -0.05599968 -0.022918144
0.029073266 -0.081426136 0.08007436 0.025753463 -0.069160685 0.0041430877 0.073401995 -0.037496377
-0.017603172 0.020879555 0.05072648 -0.060527574 0.055434983 0.048924286 0.0065325196 0.07298427
-0.009305412 -0.02802963 -0.014089736 0.044611756 -0.06146591 0.014172118 -0.028594274 0.090350404
0.104936 -0.06126432 0.0034788 -0.11055075 -0.088850215 -0.004396692 -0.0017720531 0.030908093
0.07745948 0.053648848 -0.12753733 0.06469992 -0.024868362 -0.0571897 -0.06332674 0.01636491
0.06020991 0.07907209 0.017284397 -0.0049782293 -0.13296945 0.070440024 -0.06426723 -0.019077651
-0.023426153 -0.027439449 0.025261398 0.03286517 0.069117546 0.06830481 0.0351014 0.040238835
0.055854455 0.09874755 0.016641596 0.0877935 0.08749837 -0.032906044 -0.075198576 -0.058438215
-0.07658529 -0.056473643 -0.069497354 0.022002667 -0.060532317 -0.037356317 -0.08875318 0.013233675
00000000: 2cf0 2bbd 9bd4 143e d7cb d43d 2566 fc3a
00000010: 23e4 fc3c 573f e3bb 6d75 a5bc ced8 ef3c
00000020: 85fa 483d ddcb 11bd 05cc d0bc 2929 493d
00000030: 2c92 aa3c c8e3 c43d 18e5 b53c 266e f33c
00000040: 7297 573d bd1a a33c 3797 dcbc b66b ec3d
00000050: db91 9cbc 14f8 47bc 3b12 3cbd e5ac 273d
00000060: 2f89 4a3d 8ed6 e2bb ae61 c93c f0fb 193c
00000070: 3233 8cbc 0284 aabd 2909 0e3e 50c2 3fbc
00000080: bab0 d53d a8ce 8a3d f4b7 aa3c 68ea ce3d
00000090: 28e4 c83d c575 493d 4e1d 71bb 1e2b 503d
000000a0: 911b 1e3b 7cab 843d a52b 24be 5445 f1bc
000000b0: 4a9a a4bc f9df 09bd 981a 423c ca87 43bd
000000c0: 0810 f3bc b6a7 a2bc 645f f9bd e56c 0bbd
000000d0: 1f52 20bc f8b1 823d a4f0 20bd 3c31 dfbd
000000e0: aca5 b13c b8b5 59bd fc51 25bd 8e4a ecbd
000000f0: ec9c b7bb c336 d6bd 6d0d 853d a522 033d
00000100: a826 a33c 4111 7a3d 7004 d3bb 78fa 323d
00000110: d855 4e3d 7ac5 77bd e89e db3c 107f 573c
00000120: 1871 753c 38a7 263c 1c1f 9c3c a949 09bd
00000130: 5c0c 12bc d092 873d d0bb 3f3d a08a 2bbb
00000140: 8934 86bd 601f 483b 6556 42bd f011 683d
00000150: 7040 2dbd 20d7 a4bb 885a 7dbc a023 4b3c
00000160: 6a27 173e 43fe 3b3d df11 133e a02e d33d
00000170: 370b bf3d d6db c33d b75c a63e 95fa 9f3c
00000180: c4ef fdbc 598b b33c 6622 003c 13c5 9e3c
00000190: f1fb b23d 66eb de3c 7108 b53d 9f55 b93d
000001a0: 951d a13d d608 4a3d e908 26be 327d 75bd
000001b0: 67fd 85bc da21 dbbc 279f 5abe ad86 c8bb
000001c0: 206d a83d 63f3 79be 5edd 33bc 7445 5fbe
000001d0: e270 7cbc dfe8 443e 2dc8 393d d948 f1bb
000001e0: a56e e9bc b0c8 043d 5c72 96bc e26e 3bbd
000001f0: dd7b 7d3c c10c f4bd e5ed 283c a6f8 893d
00000200: 1f88 ba3c bb75 b93c 028c 43bd 822a 8f3c
00000210: c208 85bc 3ba9 123d b2ee 663c f082 8d3d
00000220: 166d 08bd 2369 6c3c fec9 11bd 60a0 9cbd
00000230: 0198 60bc 820e 14bd 35bd 7a3d 78c8 c43c
00000240: 1de4 63bd b753 c23c 54f6 51bd 1a42 04bd
00000250: ae5a a0bc f698 90bd 5bfb 95bd 1e03 19bc
00000260: 9d25 873d dbb0 8a3d 1a3a 173d cd62 f8bc
00000270: ccb9 f3bc c21f 853d 0f02 b13c cf2f 36bc
00000280: f07c bb3c 2903 1cbd c50e dfbb a149 ad3d
00000290: cb81 62bc 1d03 033b ae63 b6bd 5b60 40ba
000002a0: 919c 5e3d be80 53bc 4e71 8fbb 9489 c83c
000002b0: 4313 c0bd d4e2 d03c dcdd 35bd e58e 98bd
000002c0: 9d8b 813d f8c7 003d 0461 77bc 6f48 c3bc
000002d0: 4167 9dbd e827 a0bc ec5f 65bd d5be bbbc
000002e0: 0f2b ee3c bfc2 a6bd 07fe a33d edf8 d23c
000002f0: 1ea4 8dbd bdc2 873b c953 963d cd95 19bd
00000300: 8734 90bc 9a0b ab3c 92c6 4f3d c3eb 77bd
00000310: cb0f 633d d564 483d bf0e d63b c778 953d
00000320: ba75 18bc 659e e5bc a3d8 66bc d1ba 363d
00000330: aec3 7bbd 2c32 683c 8a3e eabc a209 b93d
00000340: b0e8 d63d 4cf0 7abd 94fc 633b 6e68 e2bd
00000350: 1af7 b5bd 2012 90bb 3c44 e8ba f832 fd3c
00000360: 13a3 9e3d e5be 5b3d 2599 02be 6481 843d
00000370: bcb8 cbbc bf3f 6abd 73b1 81bd b40f 863c
00000380: ab9e 763d 8cf0 a13d 0298 8d3c 6a20 a3bb
00000390: 2529 08be dc42 903d 8a9e 83bd bc48 9cbc
000003a0: 34e8 bfbc b2c8 e0bc fef0 ce3c a19d 063d
000003b0: 808d 8d3d 64e3 8b3d 7cc6 0f3d 7ad1 243d
000003c0: a4c7 643d 283c ca3d f553 883c 14cd b33d
000003d0: 5832 b33d 7dc8 06bd b601 9abd e95c 6fbd
000003e0: c0d8 9cbd e850 67bd a154 8ebd f03e b43c
000003f0: bcf0 77bd f002 19bd 3ac4 b5bd 0ed2 583c

wide.bias f4 [32]
0.06454323 -0.022130944 0.0057525435 0.02686942 -0.036478993 -0.026699072 0.025647387 0.022555262
0.067927785 0.06507121 0.026142102 0.028101124 0.007895246 0.09196529 0.0069946884 -0.02070043
0.010207361 0.05275309 0.088560656 -0.03245663 0.06308613 -0.01607928 0.00068137853 0.04105324
0.038341686 0.072507404 0.12444793 0.07656347 0.024458347 0.004645771 -0.026669309 0.0466557
00000000: 3e2f 843d f44b b5bc d57f bc3b 421d dc3c
00000010: ff6a 15bd 03b8 dabc 781a d23c d0c5 b83c
00000020: b91d 8b3d 0e44 853d f627 d63c 5434 e63c
00000030: 105b 013c 4c58 bc3d b333 e53b f393 a9bc
00000040: c63c 273c a013 583d 4a5f b53d 3ef1 04bd
00000050: 4d33 813d b2b8 83bc 8a9e 323a 7127 283d
00000060: 2c0c 1d3d c37e 943d 8ede fe3d 4fcd 9c3d
00000070: df5c c83c 8d3b 983b 9879 dabc 0c1a 3f3d

deep_input.net.0.weight f4 [128, 206]
0.23952706 0.01663143 -0.032063354 0.023189 -0.035673093 -0.069047354 -0.094810754 0.0029009457
0.00071987056 0.014304079 0.015117602 -0.027727317 -0.11982138 0.031775914 -0.07477762 -0.05829887
-0.011232052 0.0764139 -0.009185395 0.0043980335 0.11191615 0.008791022 -0.17378597 0.014185046
0.030862754 0.058112234 0.026028635 0.031733364 0.068891294 0.0073202304 0.06836384 0.042371407
-0.041210204 0.014814146 0.05373004 -0.039733436 -0.050290823 -0.06418143 0.032990385 0.015407853
-0.059006616 -0.02769686 -0.025418278 -0.057447918 -0.095197104 -0.045806658 -0.04689528 -0.08579448
-0.087961115 0.04845352 -0.018022463 0.08948038 -0.20210157 -0.05087725 0.022018356 0.034211084
0.05916883 -0.06470729 0.043638866 -0.10878154 0.023640776 -0.050745383 0.00017161603 -0.04761913
-0.09338822 -0.06972027 -0.027940523 0.053097233 0.030230172 0.03446275 -0.05634893 -0.06260381
0.064465776 0.045510113 -0.03003063 0.005858481 0.05019422 0.06271784 -0.05606153 -0.034531973
0.027075097 0.053233363 0.0121214315 -0.0042998716 0.002698809 0.06340289 -0.05470255 0.031741202
-0.039099246 0.050776053 -0.047340382 0.07865382 -0.011262106 0.019163286 0.2318345 0.011440972
0.01990278 0.018542582 -0.06453465 0.05876936 -0.011433923 -0.096177146 0.06136946 0.023127338
0.0028287976 0.130613 -0.10574098 -0.027639832 -0.057174347 -0.061627287 -0.31253785 0.025201222
0.3229959 -0.34392968 0.0802188 -0.23308294 0.061637662 0.33831915 0.0709804 0.013879944
0.019308193 0.03137458 -0.07253497 0.06653638 0.016943213 0.0047132946 -0.007942819 0.006819342
0.063412845 0.028734466 0.050704174 -0.052099954 -0.028735409 -0.04088758 -0.061617356 0.014882251
-0.044506084 0.0039431914 -0.06061612 -0.05841598 -0.023026772 -0.03272844 0.002467451 -0.065014996
0.057575 0.02893376 -0.032166954 -0.019274747 -0.049526546 0.062026758 -0.04399243 -0.024407746
-0.0019343907 0.040551875 -0.01566183 0.030833926 0.035094116 -0.023411749 0.03783424 -0.039696496
-0.052579936 0.007929889 -0.016315974 0.011261351 0.04806572 -0.0587494 0.042674247 0.0076443125
0.07155577 0.025450684 -0.012193972 0.0124979755 -0.031724505 -0.009639295 0.03719472 0.015977096
0.06811433 0.012519962 0.004339639 -0.022064282 -0.06498466 -0.016808005 0.0580139 0.064677425
-0.008384144 0.07737257 0.029019017 -0.07482239 -0.07947984 -0.054526407 -0.00564235 0.03830727
0.012415085 0.047098406 -0.0069386004 0.06607057 0.030443532 -0.059031446 -0.047657445 0.02964384
0.060236372 -0.032829825 -0.007944735 -0.074094206 0.05522633 0.014309141 0.13643761 0.03624713
0.06510317 -0.016141498 -0.06839186 -0.12664749 -0.105314 0.021613846 -0.04964091 -0.02674412
0.024790283 -0.048005287 0.026176546 0.022013199 0.07347313 -0.06666089 0.049275786 -0.010790165
0.07912672 0.08401196 0.08018174 -0.05497172 -0.08571191 -0.026810544 -0.029206078 0.01762876
-0.01527782 0.0041404963 0.03164469 -0.09073046 0.06572381 0.0039475188 -0.04865851 0.05469741
0.0031527877 -0.038393386 -0.022913227 -0.013061211 0.0626614 -0.03537872 -0.00090525707 -0.02947079
-0.08838535 -0.019035943 -0.18383494 0.023156106 0.046009526 -0.0918349 -0.11776737 0.04312636
00000000: 9546 753e a33e 883c dd54 03bd dcf6 bd3c
00000010: f31d 12bd b368 8dbd 242c c2bd cb1d 3e3b
00000020: b2b5 3c3a a85b 6a3c d2af 773c 6624 e3bc
00000030: e964 f5bd 7627 023d 0225 99bd ccca 6ebd
00000040: a406 38bc e47e 9c3d 577e 16bc 611d 903b
00000050: 4b34 e53d 3808 103c f3f4 31be 6568 683c
00000060: e3d3 fc3c 1807 6e3d 013a d53c d8fa 013d
00000070: e116 8d3d 8bde ef3b 5702 8c3d a48d 2d3d
00000080: 08cc 28bd 08b7 723c 0814 5c3d 87bf 22bd
00000090: c0fd 4dbd 8e71 83bd ed20 073d 3871 7c3c
000000a0: ecb0 71bd 86e4 e2bc fe39 d0bc 824e 6bbd
000000b0: b3f6 c2bd c39f 3bbd 4415 40bd 04b5 afbd
000000c0: f524 b4bd 3377 463d d8a3 93bc 7d41 b73d
000000d0: b7f3 4ebe aa64 50bd d75f b43c ec20 0c3d
000000e0: 045b 723d 4185 84bd abbe 323d dbc8 debd
000000f0: 4daa c13c 64da 4fbd d4f3 3339 470c 43bd
00000100: 5342 bfbd 80c9 8ebd 86e3 e4bc 7c7c 593d
00000110: 44a5 f73c d028 0d3d 23ce 66bd 6d36 80bd
00000120: a206 843d d068 3a3d cc02 f6bc 80f8 bf3b
00000130: 7498 4d3d 3672 803d c6a0 65bd 6671 0dbd
00000140: 98cc dd3c 3a0b 5a3d f898 463c f0e5 8cbb
00000150: 80de 303b 60d9 813d c80f 60bd 1003 023d
00000160: 8826 20bd 8dfa 4f3d fde7 41bd 4115 a13d
00000170: b284 38bc 53fc 9c3c 0666 6d3e ea72 3b3c
00000180: 280b a33c 9de6 973c be2a 84bd 24b8 703d
00000190: 5955 3bbc 86f8 c4bd 8b5e 7b3d 8b75 bd3c
000001a0: 5963 393b 6abf 053e ba8e d8bd ee6c e2bc
000001b0: a62f 6abd e56c 7cbd f604 a0be cb72 ce3c
000001c0: b85f a53e 8d17 b0be c149 a43d 4bad 6ebe
000001d0: c677 7c3d 2b38 ad3e 2c5e 913d b468 633c
000001e0: 372c 9e3c a282 003d 378d 94bd 3a44 883d
000001f0: 7ecc 8a3c fb71 9a3b 9922 02bc c974 df3b
00000200: 98de 813d 8b64 eb3c 2eaf 4f3d c366 55bd
00000210: 8566 ebbc bc79 27bd 7b62 7cbd afd4 733c
00000220: 034c 36bd e335 813b 9c48 78bd 9845 6fbd
00000230: a4a2 bcbc 420e 06bd f5b4 213b 9526 85bd
00000240: c3d3 6b3d 7e06 ed3c 7fc1 03bd 13e6 9dbc
00000250: 59dc 4abd c50f 7e3d 6831 34bd c1f2 c7bc
00000260: 628b fdba b919 263d 3d4d 80bc 6e97 fc3c
00000270: d9be 0f3d ffc9 bfbc 13f8 1a3d cb98 22bd
00000280: 0f5e 57bd 5dec 013c 14a9 85bc 8881 383c
00000290: 8fe0 443d 36a3 70bd 31cb 2e3d 247d fa3b
000002a0: d58b 923d f47d d03c 3ac9 47bc 4fc4 4c3c
000002b0: 8ef1 01bd 22ee 1dbc 7e59 183d 66e2 823c
000002c0: 877f 8b3d 8720 4d3c 8833 8e3b 27c0 b4bc
000002d0: ad16 85bd f1b0 89bc fc9f 6d3d 9975 843d
000002e0: a65d 09bc 8375 9e3d 4ab9 ed3c 7b3c 99bd
000002f0: 54c6 a2bd 1557 5fbd 76e3 b8bb 15e8 1c3d
00000300: a468 4b3c 42ea 403d 335d e3bb 0250 873d
00000310: b764 f93c f5ca 71bd 7434 43bd a3d7 f23c
00000320: 6aba 763d 9178 06bd a22a 02bc b4be 97bd
00000330: 0135 623d e370 6a3c 4db6 0b3e df77 143d
00000340: d054 853d 2d3b 84bc 0811 8cbd e1af 01be
00000350: deae d7bd 850f b13c 4454 4bbd 7c16 dbbc
00000360: fe14 cb3c 31a1 44bd 3270 d63c 0655 b43c
00000370: 1579 963d 8185 88bd 68d5 493d 3bc9 30bc
00000380: 310d a23d 760e ac3d 5336 a43d 072a 61bd
00000390: ba89 afbd c9a1 dbbc 9641 efbc 306a 903c
000003a0: d24f 7abc 00ad 873b dd9d 013d e4d0 b9bd
000003b0: 349a 863d 305a 813b 254e 47bd 640a 603d
000003c0: 009f 4e3b 6242 1dbd 85b4 bbbc b1fe 55bc
000003d0: 9f54 803d 47e9 10bd c64e 6dba ba6c f1bc
000003e0: 6103 b5bd 44f1 9bbc 3a3f 3cbe e0b1 bd3c
000003f0: 7c74 3c3d f013 bcbd 0530 f1bd 44a5 303d

deep_input.net.0.bias f4 [128]
-0.035142403 0.050820142 -0.017256148 -0.0046598837 -0.048201278 -0.059075363 -0.023555316 0.03890393
-0.011139673 0.0031097096 0.016062679 0.02693926 -0.06042898 0.046215937 0.0014093916 0.009655465
-0.0076018767 0.074050486 -0.029163565 0.07419784 0.06409606 0.023353728 0.028974708 0.074723035
-0.043069147 -0.028492155 0.016726019 0.0010529675 -0.016978493 -0.05762515 0.040247317 0.06078068
-0.032979615 0.04422685 0.04815005 0.002683642 -0.031152092 0.059244882 0.015148273 0.0075745615
0.067750104 0.076150894 -0.05096452 -0.04598598 0.041622866 0.051335137 -0.0005877168 0.0406323
0.007252929 -0.0009768079 0.052509412 -0.0009255022 0.07222965 0.045846146 -0.030615462 -0.04593629
0.008941344 0.046926305 -0.033245787 -0.03373594 0.028984055 -0.006393122 -0.03594194 -0.031889588
-0.037403096 0.07159489 -0.029938271 0.005348363 0.039438352 0.076019734 0.012562371 0.014000301
0.057240497 0.019937089 -0.06373827 -0.018159974 0.011917439 -0.030639416 -0.020001935 0.0002227937
0.0041396846 -0.03553208 -0.019083869 0.03848329 -0.0431157 0.03402939 0.025804153 -0.06326665
0.018540023 0.04208807 0.008224582 -0.005585143 -0.05190501 -0.001604709 -0.04482102 0.059951536
-0.045582324 -0.0045407624 0.030322472 -0.013985186 0.022028595 0.008831229 -0.0012531988 -0.01494718
0.06250748 0.0066731474 0.00043719847 0.020549135 0.029557904 0.027862031 0.013624288 -0.0054746973
-0.008251003 -0.04422853 0.004084603 -0.023314983 0.05618639 0.049241617 0.020821763 -0.0601288
0.01337612 0.01947995 0.028699413 0.07342542 0.07483877 0.024905069 0.08504543 0.0048415866
00000000: 7bf1 0fbd c828 503d c45c 8dbc f0b1 98bb
00000010: b46e 45bd 02f9 71bd 14f7 c0bc ba59 1f3d
00000020: 2d83 36bc 45cc 4b3b e195 833c b9af dc3c
00000030: 6184 77bd ec4c 3d3d 56bb b83a f531 1e3c
00000040: 2a19 f9bb c8a7 973d 6ee8 eebc 0af5 973d
00000050: cc44 833d 5150 bf3c 5e5c ed3c 6408 993d
00000060: 4669 30bd 6168 e9bc 0105 893c ba03 8a3a
00000070: 7b16 8bbc 5908 6cbd 5fda 243d 2af5 783d
00000080: a215 07bd 3727 353d fd38 453d 0be0 2f3b
00000090: ac32 ffbc c3aa 723d 7630 783c 0734 f83b
000000a0: 91c0 8a3d 00f5 9b3d 2cc0 50bd cc5b 3cbd
000000b0: bd7c 2a3d cb44 523d 0211 1aba 0e6e 263d
000000c0: faa9 ed3b 3c08 80ba 1c14 573d 679d 72ba
000000d0: 24ed 933d 2bc9 3b3d 47cd fabc b127 3cbd
000000e0: b77e 123c cc35 403d bc2c 08bd b22e 0abd
000000f0: f86f ed3c 657d d1bb db37 13bd a89e 02bd
00000100: fd33 19bd 57a0 923d 1b41 f5bc 5241 af3b
00000110: 1c8a 213d 3cb0 9b3d 67d2 4d3c 8561 653c
00000120: 0375 6a3d 1b53 a33c 3689 82bd 3ac4 94bc
00000130: 5d41 433c 83ff fabc 19db a3bc ba9d 6939
00000140: 31a6 873b 168a 11bd c655 9cbc a7a0 1d3d
00000150: 179a 30bd 6762 0b3d 3b63 d33c f291 81bd
00000160: 3fe1 973c 8a64 2c3d 66c0 063c 9303 b7bb
00000170: 599a 54bd 1955 d2ba 3f96 37bd be8f 753d
00000180: 88b4 3abd adca 94bb d566 f83c 1f22 65bc
00000190: 5075 b43c dcb0 103c 6042 a4ba 04e5 74bc
000001a0: ec03 803d 6baa da3b c937 e539 a956 a83c
000001b0: 6b23 f23c ea3e e43c 6838 5f3c 1765 b3bb
000001c0: 372f 07bc fa28 35bd 22d8 853b 10ff bebc
000001d0: b323 663d 94b1 493d 6792 aa3c 9e49 76bd
000001e0: 8327 5b3c 6b94 9f3c 081b eb3c 1160 963d
000001f0: 1245 993d b705 cc3c 4c2c ae3d 2ca6 9e3b

deep_input.net.3.weight f4 [64, 128]
0.13931374 0.092892334 0.09932889 0.12395881 0.07561479 0.16311246 0.15396121 0.059042368
0.07692935 0.18831046 0.11471804 0.06472437 0.023292072 0.1747477 0.07590849 0.16459373
0.13431844 0.12324236 0.17901357 0.131397 0.094621055 0.06996341 0.1772619 0.11180778
0.08188766 0.14896783 0.04858382 0.049601194 0.2567342 0.16175503 0.13624854 0.040957276
0.16007979 0.08575013 0.13345507 0.031114703 0.0738548 0.115428805 -0.023660082 -0.06519445
0.010609683 0.027022067 0.05373308 0.15086181 0.10237748 0.12466506 0.13265449 0.09152788
0.19881333 0.11902692 0.080971345 0.16012178 0.16769822 0.23661181 -0.06038566 -0.030838573
-0.23569523 0.19709668 0.17947513 0.15633658 0.10458333 0.072661415 0.08193897 0.17749235
0.13977347 0.117557 0.037340432 0.17876673 0.03506417 0.12690201 0.14989758 0.12681825
0.18079282 0.13043235 0.046122964 -0.0007583811 0.11010725 0.037525985 0.003613853 0.19728717
0.009137926 0.1133335 -0.07463127 0.0620402 0.09547017 0.06477042 0.091978 0.03315839
0.14009811 -0.015224343 0.12569965 0.077397004 0.16974695 0.18335803 0.14599128 0.08504733
0.14408332 0.21361455 0.04915667 0.14105225 0.08650775 0.08386587 0.17135958 0.08780573
0.0047037387 0.06644773 0.15170573 0.04061063 0.028521108 -0.0025984715 0.15919992 0.10875808
0.03517078 0.17005894 0.12505697 0.2550643 0.15460737 0.04371923 0.0900416 0.08660995
0.1966073 0.17609303 0.031054769 0.16054901 0.13139933 0.05461382 0.078464024 0.093310446
0.13148685 0.107398145 0.05500247 0.17604518 0.10649881 0.12283698 0.047831196 0.06553126
-0.06918493 0.0347218 0.13389675 0.06741222 0.13546653 -0.024372747 0.10824798 0.13992992
0.030209774 0.18273057 0.15213415 0.01213148 0.10248003 -0.041285336 0.054614387 0.07527604
0.16574526 0.16613033 0.022350248 0.1100198 0.081512384 0.10546261 0.0044253124 0.13016388
0.09667894 0.12656116 0.15386862 0.14474483 0.087781705 0.13778803 0.04381903 -0.17707783
-0.054904535 0.0671243 0.0773851 0.046969235 0.06316257 0.11435883 -0.003977939 -0.003053131
0.08590832 0.15150456 0.096832894 0.115592 0.047030233 0.06779278 -0.06657276 -0.04250496
-0.26315838 0.1742606 0.16597669 0.067321844 0.057408467 0.09840594 0.08097294 0.10912742
-0.02458157 0.17741346 0.09212235 0.106908806 -0.008009848 0.1257562 0.046177574 0.087299556
0.020121055 0.028585237 0.13046104 0.03163865 0.065611325 0.16271946 0.11269861 0.17361675
0.10524652 0.111390375 -0.17688888 0.12908103 0.031255454 0.10966723 0.090083346 0.09927288
0.05855082 0.014365544 0.11389868 0.14211941 0.05601406 0.17956533 0.12934911 0.06931203
0.026302688 0.03471776 0.03517444 -0.04429295 0.16366585 0.089027375 -0.05863987 0.050981678
0.07264748 0.047018833 0.060414128 0.00073178334 0.15445332 0.053704146 0.12712826 0.11283189
0.13430624 0.030897342 0.103589036 0.0704769 0.19949424 0.020547267 -0.0062438464 0.0053964304
0.022335239 0.045582354 -0.016023839 0.1386619 0.08286702 0.08068658 0.14327897 0.07480491
00000000: 43a8 0e3e 563e be3d f26c cb3d 1ede fd3d
00000010: eddb 9a3d f406 273e 02a8 1d3e 69d6 713d
00000020: 238d 9d3d 75d4 403e 4bf1 ea3d 368e 843d
00000030: 04cf be3c 10f1 323e e975 9b3d 428b 283e
00000040: c68a 093e 7e66 fc3d 554f 373e ef8c 063e
00000050: afc8 c13d fa48 8f3d 2584 353e 7afb e43d
00000060: b8b4 a73d 068b 183e d4ff 463d 9f2a 4b3d
00000070: aa72 833e 1ca3 253e bd84 0b3e d1c2 273d
00000080: f5eb 233e c49d af3d 72a8 083e 43e4 fe3c
00000090: 2f41 973d f065 ec3d cad2 c1bc ab84 85bd
000000a0: 3cd4 2d3c 625d dd3c 3817 5c3d 857b 1a3e
000000b0: 49ab d13d 6550 ff3d 94d6 073e f872 bb3d
000000c0: b995 4b3e 63c4 f33d 4ed4 a53d f7f6 233e
000000d0: 15b9 2b3e 5e4a 723e f456 77bd 2da1 fcbc
000000e0: 175a 71be b6d3 493e 54c8 373e b216 203e
000000f0: c92f d63d 82cf 943d 9ecf a73d 8ec0 353e
00000100: c720 0f3e b9c1 f03d 48f2 183d a00e 373e
00000110: 729f 0f3d 9af2 013e c07e 193e a5dc 013e
00000120: c121 393e 0f90 053e 6feb 3c3d 18ce 46ba
00000130: e97f e13d d9b4 193d 64d6 6c3b a605 4a3e
00000140: 3db7 153c 651b e83d 47d8 98bd dd1d 7e3d
00000150: dd85 c33d 5ba6 843d f65e bc3d 18d1 073d
00000160: e175 0f3e 866f 79bc 69b7 003e 5282 9e3d
00000170: 25d2 2d3e 35c2 3b3e bd7e 153e 4b2d ae3d
00000180: 948a 133e c6bd 5a3e 8158 493d 0070 103e
00000190: fa2a b13d dfc1 ab3d e378 2f3e 7ed3 b33d
000001a0: d221 9a3b bf15 883d bf58 1b3e 5557 263d
000001b0: 19a5 e93c 1e4b 2abb 4e05 233e 8ebc de3d
000001c0: 3c0f 103d ee23 2e3e ef0e 003e ca97 823e
000001d0: 6551 1e3e ef12 333d bb67 b83d 8f60 b13d
000001e0: 6d53 493e bb51 343e 9266 fe3c f666 243e
000001f0: 8c8d 063e beb2 5f3d bfb1 a03d 8c19 bf3d
00000200: 7da4 063e 8ff3 db3d 454a 613d 3045 343e
00000210: 0c1c da3d f491 fb3d a5ea 433d 4135 863d
00000220: d4b0 8dbd 7238 0e3d 3b1c 093e 6b0f 8a3d
00000230: bdb7 0a3e 5ba9 c7bc 1eb1 dd3d ca49 0f3e
00000240: 7d7a f73c b91d 3b3e 0ec9 1b3e 1dc3 463c
00000250: 0de1 d13d d01a 29bd 56b3 5f3d 532a 9a3d
00000260: 20b9 293e 121e 2a3e de17 b73c 1052 e13d
00000270: f7ef a63d c8fc d73d 3602 913b ae49 053e
00000280: 9cff c53d 4099 013e bc8f 1d3e fd37 143e
00000290: e5c6 b33d 4e18 0d3e 957b 333d e453 35be
000002a0: 94e3 60bd 7778 893d 147c 9e3d d062 403d
000002b0: 615b 813d f634 ea3d 5f59 82bb 0a17 48bb
000002c0: b4f0 af3d 0324 1b3e 5350 c63d 80bb ec3d
000002d0: c6a2 403d f1d6 8a3d 4d57 88bd ae19 2ebd
000002e0: b2bc 86be 5f71 323e cbf5 293e 09e0 893d
000002f0: 2425 6b3d 0e89 c93d 24d5 a53d 327e df3d
00000300: 4a5f c9bc e0ab 353e a5aa bc3d 01f3 da3d
00000310: bd3b 03bc 3cc6 003e b224 3d3d 1cca b23d
00000320: e9d4 a43c 962b ea3c 9497 053e 8797 013d
00000330: 3b5f 863d ee9f 263e 87ce e63d 97c8 313e
00000340: 7d8b d73d a320 e43d 5c22 35be d12d 043e
00000350: b805 003d 3699 e03d 9e7d b83d 944f cb3d
00000360: fcd2 6f3d 755d 6b3c b643 e93d c087 113e
00000370: 006f 653d f9df 373e 1874 043e 77f3 8d3d
00000380: bc78 d73c 3634 0e3d 1313 103d 866c 35bd
00000390: 0598 273e fc53 b63d 5c30 70bd 2ad2 503d
000003a0: 34c8 943d d296 403d ce74 773d 26d5 3f3a
000003b0: 0329 1e3e e1f8 5b3d e92d 023e 6814 e73d
000003c0: 9387 093e 6c1c fd3c 7d26 d43d 3156 903d
000003d0: 3848 4c3e be52 a83c 2e99 ccbb 8ad4 b03b
000003e0: 64f8 b63c 90b4 3a3d 6d44 83bc 63fd 0d3e
000003f0: 2fb6 a93d 013f a53d b9b7 123e 5133 993d

deep_input.net.3.bias f4 [64]
0.10891467 -0.06225703 -0.05723379 0.03949267 -0.019110793 0.09458193 -0.011554497 -0.018598119
-0.007749211 0.13362327 0.05144886 -0.010080381 -0.022816032 0.09140427 0.10671828 -0.08296721
-0.086302966 0.13650513 -0.083842866 0.019935517 0.08217693 0.079196885 0.03281885 0.035338197
0.018402213 0.0030402266 -0.08166191 0.015309663 0.035653662 -0.008653887 0.08744154 0.07247656
0.054769218 -0.056404598 0.05400702 -0.022983626 -0.07689829 -0.022800049 -0.061827715 0.0014158126
0.018450728 0.11747538 0.045233283 -0.014835528 0.12799238 0.01774727 -0.0044221473 0.006858257
-0.08082853 0.06313188 0.03404274 -0.025678238 0.044317927 -0.065518126 -0.0044021453 0.06420904
0.053083744 0.06274034 0.031209132 0.0590638 -0.06864996 -0.011991441 0.06348877 0.062250815
00000000: a80e df3d 3a01 7fbd fb6d 6abd 11c3 213d
00000010: 3d8e 9cbc 2cb4 c13d 134f 3dbc 155b 98bc
00000020: 18ed fdbb 8ad4 083e 0abc 523d 2f28 25bc
00000030: b0e8 babc 2932 bb3d 1d8f da3d b6ea a9bd
00000040: 9cbf b0bd 00c8 0b3e cfb5 abbd cf4f a33c
00000050: 614c a83d fa31 a23d 0f6d 063d c9be 103d
00000060: 3dc0 963c 8a3e 473b 5c3e a7bd 61d5 7a3c
00000070: 9309 123d 08c9 0dbc 8d14 b33d 976e 943d
00000080: b055 603d 8208 67bd 7736 5d3d 2848 bcbc
00000090: da7c 9dbd 2bc7 babc 0f3f 7dbd ca92 b93a
000000a0: fb25 973c ef96 f03d 8946 393d b710 73bc
000000b0: 6f10 033e b962 913c a9e7 90bb 3bbb e03b
000000c0: 6e89 a5bd 494b 813d 6670 0b3d 2b5b d2bc
000000d0: b786 353d 5e2e 86bd df3f 90bb 0780 833d
000000e0: 576e 593d 027e 803d 4baa ff3c e2ec 713d
000000f0: 5a98 8cbd c077 44bc 6606 823d b6fa 7e3d

core.experts.0.net.0.weight f4 [64, 96]
-0.059681546 -0.09779926 -0.067621805 0.12051792 0.077745736 -0.061264075 -0.07061467 -0.010377192
-0.06881634 0.009714115 -0.076781034 0.0135817705 0.01878417 0.08934291 -0.005722971 -0.09053889
-0.13629317 -0.09151426 -0.06735696 0.020736678 0.048473094 0.03705667 0.050385755 -0.059978146
-0.034300413 0.0411005 0.029765362 0.060670372 -0.1356597 0.10338621 -0.059758283 -0.12573484
-0.066343196 0.053545788 0.024779595 -0.02448484 0.069690764 0.09368324 0.07637244 -0.03337384
-0.10491199 -0.003918839 0.008590297 -0.0039242404 -0.09039369 0.025748575 -0.1270407 -0.014812897
0.046160087 0.0066701113 0.023272015 -0.07380419 -0.09247027 -0.06462868 -0.025963232 -0.046941087
-0.06921901 -0.0010520762 0.009950055 0.032029953 -0.079734035 -0.1093583 0.024399891 -0.024801377
0.057189513 0.011806771 0.082340814 0.09585794 0.01913305 -0.051252283 -0.123664506 -0.077603914
-0.0070281946 -0.049146388 -0.106779166 0.07635254 -0.087594345 -0.060525406 -0.02672885 -0.07360878
-0.13043289 -0.10338507 0.045328636 0.0041682147 -0.14531079 -0.05462591 -0.018146196 -0.06334925
0.031414516 0.030533845 -0.06591095 -0.019642387 -0.0985398 -0.063938186 0.07591597 0.039251756
-0.0062811244 0.03336844 -0.14984275 0.010135799 -0.008455948 0.12602775 0.0012999609 0.017820824
0.020009054 0.045901883 -0.0033814963 -0.01815211 0.047919802 0.10976161 -0.047890007 0.09200777
-0.05483037 0.1249029 0.09144698 -0.0629889 0.02643561 -0.07671144 -0.10592121 -0.10020436
-0.07573104 -0.11571623 -0.07026793 -0.079305016 -0.034352057 -0.006901957 -0.014351638 0.06313741
0.082810625 0.05133101 0.018871112 0.014780207 -0.11997928 0.023613742 0.060041837 0.004728435
0.07140096 0.12234231 -0.012029379 0.004060738 -0.0480326 -0.15681419 -0.029993955 0.050337985
-0.056191303 -0.040286236 -0.057887815 -0.052854914 0.026249966 0.066679284 0.114062876 0.08788004
-0.008127233 -0.011255001 0.054551724 0.037466336 0.023875311 0.09001688 0.07174636 0.0717743
0.17760411 -0.05317661 -0.12860394 0.07448511 0.055465788 0.019301027 0.15700062 -0.06272749
0.027941804 0.11776035 0.02693507 0.16750607 0.18556225 0.045399472 0.16086465 0.18504491
0.0063549452 -0.016439356 -0.0065589417 0.16507836 0.028424498 0.10072948 -0.03344467 0.031823784
0.0024485462 0.11291208 -0.0049243923 0.17249459 0.016961435 0.058072142 -0.15482266 0.07600743
0.07206797 0.14490391 0.0044811782 0.035719637 0.057990205 0.20024465 0.14230578 0.04569374
0.06932336 0.21094458 0.10235951 0.11245561 0.1406942 0.057080135 0.10402853 0.050628673
0.030938338 0.0053097806 0.099470824 0.17351367 0.060519937 0.048428193 -0.03444319 0.12123517
0.10598065 0.114850014 0.04146451 0.041943617 0.069956966 0.12068242 0.12629357 0.10520144
0.011648996 0.13920279 0.13108909 0.050084293 -0.017922612 0.04116277 -0.047896042 0.079409115
0.063241154 0.06057552 0.1828886 0.15918481 0.08944652 -0.026188362 0.1731503 0.0354323
-0.009037922 0.15064265 0.0045865336 -0.013194928 0.041086037 -0.012717762 0.17092088 0.09603438
0.19236007 0.03210672 0.009794339 0.026983969 0.06955169 0.17970073 0.19198631 0.16973983
00000000: a374 74bd fa4a c8bd 4d7d 8abd 19d2 f63d
00000010: 2839 9f3d 0af0 7abd 6d9e 90bd 1905 2abc
00000020: 95ef 8cbd f427 1f3c 603f 9dbd 1386 5e3c
00000030: 42e1 993c 6af9 b63d c387 bbbb 746c b9bd
00000040: 7090 0bbe d46b bbbd 72f2 89bd f7df a93c
00000050: b98b 463d bcc8 173d 4b61 4e3d a5ab 75bd
00000060: 977e 0cbd ff58 283d 7dd6 f33c 7f81 783d
00000070: 60ea 0abe 26bc d33d 1ac5 74bd a2c0 00be
00000080: f1de 87bd d452 5b3d 94fe ca3c 6e94 c8bc
00000090: 08ba 8e3d 00dd bf3d 2769 9c3d 02b3 08bd
000000a0: 19dc d6bd 9b69 80bb 51be 0c3c ea96 80bb
000000b0: 5420 b9bd adee d23c f516 02be cbb1 72bc
000000c0: 5c12 3d3d f390 da3b f4a4 be3c a726 97bd
000000d0: 0e61 bdbd 0b5c 84bd d8b0 d4bc 4c45 40bd
000000e0: b2c2 8dbd d2e5 89ba 8e05 233c d731 033d
000000f0: 994b a3bd 3ff7 dfbd 48e2 c73c 422c cbbc
00000100: 8d3f 6a3d 3071 413c 4da2 a83d 2b51 c43d
00000110: eabc 9c3c eaed 51bd d143 fdbd cdee 9ebd
00000120: c54c e6bb b94d 49bd 09af dabd b85e 9c3d
00000130: aa64 b3bd 7de9 77bd 76f6 dabc 33c0 96bd
00000140: 3390 05be 8dbb d3bd 85aa 393d 8595 883b
00000150: 5acc 14be 6bbf 5fbd 55a7 94bc 40bd 81bd
00000160: 82ac 003d 1d22 fa3c 52fc 86bd 12e9 a0bc
00000170: 3ccf c9bd 06f2 82bd d579 9b3d 73c6 203d
00000180: e4d1 cdbb 58ad 083d 6170 19be 9f10 263c
00000190: d18a 0abc 6b0d 013e 7363 aa3a fafc 913c
000001a0: 07ea a33c 9d03 3c3d 189c 5dbb bcb3 94bc
000001b0: 8e47 443d b2ca e03d 5028 44bd 926e bc3d
000001c0: cf95 60bd 17cd ff3d 8e48 bb3d 5300 81bd
000001d0: 7e8f d83c e31a 9dbd 38ed d8bd f237 cdbd
000001e0: e018 9bbd a1fc ecbd a2e8 8fbd ab6a a2bd
000001f0: beb4 0cbd d029 e2bb 2223 6bbc 304e 813d
00000200: 9e98 a93d 7740 523d 9797 9a3c ae28 723c
00000210: b2b7 f5bd 9b71 c13c 6eee 753d fdf0 9a3b
00000220: ab3a 923d 9b8e fa3d df16 45bc f00f 853b
00000230: d5bd 44bd e693 20be e2b5 f5bc 342f 4e3d
00000240: da28 66bd 2e03 25bd c61b 6dbd 657e 58bd
00000250: 2b0a d73c 268f 883d cc99 e93d 73fa b33d
00000260: 1628 05bc e566 38bc a171 5f3d 4d76 193d
00000270: 2896 c33c c55a b83d c1ef 923d 67fe 923d
00000280: dadd 353e b8cf 59bd c0b0 03be a68b 983d
00000290: 1830 633d 301d 9e3c c5c4 203e 4577 80bd
000002a0: 36e6 e43c 572c f13d f0a6 dc3c b686 2b3e
000002b0: 0804 3e3e ccf4 393d b4b9 243e 6a7c 3d3e
000002c0: 253d d03b d4ab 86bc 64ec d6bb 4d0a 293e
000002d0: 7eda e83c 424b ce3d 47fd 08bd a859 023d
000002e0: ca77 203b 733e e73d cc5c a1bb 6ca2 303e
000002f0: b5f2 8a3c 0edd 6d3d d589 1ebe c9a9 9b3d
00000300: 5f98 933d b161 143e d9d6 923b c14e 123d
00000310: 2387 6d3d ef0c 4d3e 9bb8 113e 5c29 3b3d
00000320: 68f9 8d3d db01 583e dda1 d13d 204f e63d
00000330: 2412 103e dccc 693d e90c d53d 0360 4f3d
00000340: 6672 fd3c abfd ad3b 5cb7 cb3d 91ad 313e
00000350: c1e3 773d a45c 463d 4d14 0dbd 254a f83d
00000360: 620c d93d 7c36 eb3d b1d6 293d 12cd 2b3d
00000370: 9945 8f3d 5828 f73d 1a53 013e da73 d73d
00000380: 6edb 3e3c 2d8b 0e3e 383c 063e 3025 4d3d
00000390: 71d2 92bc 4b9a 283d a42e 44bd 3fa1 a23d
000003a0: 9484 813d 091e 783d 2647 3b3e 5801 233e
000003b0: bd2f b73d fa88 d6bc 504e 313e 7621 113d
000003c0: cb13 14bc 1142 1a3e a24a 963b 8a2f 58bc
000003d0: d549 283d 295e 50bc e205 2f3e acad c43d
000003e0: 0afa 443e 5682 033d 6f78 203c 7c0d dd3c
000003f0: 1e71 8e3d 7803 383e 0f98 443e 47d0 2d3e

core.experts.0.net.0.bias f4 [64]
-0.054272987 -0.0018016247 0.025503695 0.12669751 0.019765077 -0.1058286 0.048384953 0.006716583
-0.0048065516 0.09447632 0.05837504 0.022676867 0.05531808 -0.04367481 0.0921542 0.044578828
0.1368654 0.070591256 0.14743595 -0.06770525 0.0026668545 0.0826081 0.14631893 0.1267474
0.057290964 0.15692617 0.15202448 -0.02474159 0.020763986 0.067804195 0.04375357 -0.0078107575
0.18452248 0.02177507 0.07059661 0.11087154 0.013174424 -0.06705956 0.06394527 0.034965504
-0.03165641 0.09681491 0.16309156 0.10046573 0.040571798 -0.006216511 0.052634075 0.19096808
0.06260757 -0.0268835 -0.11445982 0.022138763 0.08323784 0.13522293 0.13205203 0.039698526
0.12810008 0.046499003 0.14733481 0.16506241 0.08321095 0.061801966 -0.00066438504 0.020867078
00000000: 5a4d 5ebd 7e24 ecba 20ed d03c febc 013e
00000010: 5fea a13c aabc d8bd 4d2f 463d c816 dc3b
00000020: 4780 9dbb cd7c c13d aa1a 6f3d d6c4 b93c
00000030: 3695 623d 5ce4 32bd 57bb bc3d 4a98 363d
00000040: 7226 0c3e 2692 903d 73f9 163e 0da9 8abd
00000050: 65c6 2e3b 6f2e a93d a1d4 153e 12ca 013e
00000060: eea9 6a3d 41b1 203e 4eac 1b3e e0ae cabc
00000070: 3c19 aa3c eddc 8a3d f236 333d 62f1 ffbb
00000080: 76f3 3c3e a261 b23c f594 903d 9e10 e33d
00000090: 8ad9 573c 8656 89bd bdf5 823d fd37 0f3d
000000a0: 27aa 01bd e546 c63d 7901 273e fac0 cd3d
000000b0: 9d2e 263d e0b3 cbbb d496 573d 238d 433e
000000c0: 6638 803d c93a dcbc e969 eabd 5a5c b53c
000000d0: 9a78 aa3d e177 0a3e a638 073e ec9a 223d
000000e0: ab2c 033e bd75 3e3d f0de 163e 1f06 293e
000000f0: 816a aa3d 0f24 7d3d 202a 2eba 6ff1 aa3c

core.experts.1.net.0.weight f4 [64, 96]
0.040729064 -0.024096603 -0.018598624 0.01940628 0.035576116 -0.010858946 -0.05499029 -0.103612654
0.07211776 -0.042759847 0.04437279 0.048443418 -0.075527854 -0.04314687 0.08393218 0.023319216
-0.11811121 -0.03196863 -0.03404468 -0.11185667 -0.087308474 -0.001315289 -0.05101766 -0.019190218
-0.083109885 -0.056745343 0.03848479 -0.014757205 0.026064945 0.08583911 0.00739776 -0.0024551454
0.05417367 0.053577665 0.07037394 -0.005986155 -0.081862316 0.024553627 -0.08143858 -0.09746195
-0.048655573 0.047498733 -0.0618925 0.02147202 -0.022720953 -0.04979404 -0.07871808 -0.07215932
-0.10998444 0.016086323 0.035781957 0.07116223 0.05921687 -0.1096875 -0.086707555 0.07179585
-0.04669386 -0.049509555 -0.05132313 0.034873847 -0.09239954 -0.071934775 0.009618052 -0.042519767
-0.06842767 -0.012228108 0.07672946 0.064973466 -0.036940288 0.043522894 0.007458712 0.008426274
0.0850482 -0.124098055 -0.06384746 -0.041485146 -0.039603613 -0.032573294 0.055558372 -0.048650537
-0.063798465 -0.08250187 0.05733803 -0.10374367 -0.028365843 0.020506881 -0.023556039 0.083434395
-0.010747734 0.0978459 -0.118176244 0.08157044 0.089531995 0.04643059 0.055460446 -0.06162041
0.017934477 0.13887618 0.0661297 -0.27783865 0.056976397 0.08371862 0.089897685 0.020071018
-0.012768898 0.13321751 0.14156373 0.003993511 -0.011185424 0.19209039 -0.021550322 0.10185646
0.12651242 0.042248804 0.0009225779 0.08561838 0.071741074 0.10092082 0.136458 0.112259604
0.08727377 -0.03966717 0.078314915 0.113114096 -0.05160839 0.14975296 -0.03750437 -0.020024158
0.09010613 0.11185096 0.03475352 0.105183065 -0.05667059 0.026000753 0.0007219112 0.09779937
0.12734002 0.012790675 0.07293058 -0.058515597 -0.040379677 -0.16724546 0.10801583 -0.036922943
0.13091655 -0.069360696 0.06358333 -0.05231094 0.12698045 0.11461286 -0.036879368 0.07641711
-0.04405251 0.13014749 0.08345606 0.04038119 0.043815687 0.09882387 0.047572 0.010007443
-0.015534081 0.13436593 -0.049401507 0.05518848 0.14119346 -0.030437727 0.07842332 0.061909966
0.110325456 -0.036644384 0.025124712 -0.017162135 0.14107202 0.056612674 0.025068136 0.06017496
0.037998244 0.01909946 0.1377761 0.10225127 0.097740814 -0.048252974 0.062379107 0.09032929
0.1546197 0.12406948 0.0023487434 0.044587478 0.02697298 -0.054647103 -0.041338496 0.109848715
0.1443249 0.04221039 -0.07326025 -0.24569112 -0.047565084 -0.008641232 0.10306507 0.04925811
0.06833285 0.016845323 0.039741714 -0.027616745 0.10182705 0.16057454 0.11308939 0.14339976
0.10667303 0.088357314 0.038818326 0.046928525 -0.032624338 0.047615014 0.09137128 -0.057868056
-0.03000575 0.08546793 -0.024529632 0.09628168 0.0514915 0.018842654 -0.030319292 -0.026571749
0.06883903 -0.059369594 0.09033583 0.110291734 -0.009134129 -0.011021001 -0.053878326 -0.009808426
-0.037832182 0.07450197 0.10108897 0.11535055 0.012380803 -0.21794614 0.05594934 -0.024304686
0.14271751 0.08403418 0.057040263 -0.017037114 0.10119022 -0.017894372 0.08360471 -0.013292518
0.031390455 0.007813451 0.032171186 0.14543985 0.025091946 0.05100309 0.12271301 0.038414165
00000000: 85d3 263d 3d66 c5bc 245c 98bc ebf9 9e3c
00000010: 43b8 113d b8e9 31bc 803d 61bd df32 d4bd
00000020: 7ab2 933d f324 2fbd 3ec0 353d 9b6c 463d
00000030: 59ae 9abd c6ba 30bd a3e4 ab3d f107 bf3c
00000040: 4ae4 f1bd 8af1 02bd 6f72 0bbd 1c15 e5bd
00000050: c9ce b2bd c665 acba e5f7 50bd ce34 9dbc
00000060: 8435 aabd ce6d 68bd 3aa2 1d3d 34c8 71bc
00000070: 2786 d53c 6acc af3d e968 f23b 81e6 20bb
00000080: 36e5 5d3d 4174 5b3d 3620 903d 8227 c4bb
00000090: 6ea7 a7bd b024 c93c 45c9 a6bd 219a c7bd
000000a0: 114b 47bd 088e 423d fd82 7dbd 17e6 af3c
000000b0: 4b21 babc d6f4 4bbd f236 a1bd 44c8 93bd
000000c0: 863f e1bd 77c7 833c 1a90 123d 81bd 913d
000000d0: 648d 723d d7a3 e0bd bb93 b1bd b409 933d
000000e0: 1042 3fbd 88ca 4abd 3438 52bd e1d7 0e3d
000000f0: f83b bdbd 8a52 93bd 0995 1d3c 3529 2ebd
00000100: ce23 8cbd 6758 48bc 5624 9d3d cf10 853d
00000110: b34e 17bd 1045 323d 3668 f43b 5b0e 0a3c
00000120: c02d ae3d 1f27 febd 75c2 82bd 54ec 29bd
00000130: 6637 22bd 936b 05bd 2d91 633d c945 47bd
00000140: c5a8 82bd bef6 a8bd 48db 6a3d 9077 d4bd
00000150: 7c5f e8bc 0cfe a73c 98f8 c0bc a7df aa3d
00000160: 4417 30bc 6e63 c83d 6306 f2bd 670e a73d
00000170: 8d5c b73d 012e 3e3d 7e2a 633d af65 7cbd
00000180: 53eb 923c 8f35 0e3e 026f 873d de40 8ebe
00000190: 1560 693d ab74 ab3d 471c b83d fa6b a43c
000001a0: a434 51bc 2c6a 083e 15f6 103e 00dc 823b
000001b0: 1243 37bc 58b3 443e 4d8a b0bc 1f9a d03d
000001c0: 798c 013e 150d 2d3d 28d9 713a b058 af3d
000001d0: fcec 923d 93af ce3d a5bb 0b3e 5de8 e53d
000001e0: 97bc b23d 0b7a 22bd 9263 a03d 5da8 e73d
000001f0: 5263 53bd d758 193e 2f9e 19bd b409 a4bc
00000200: 9089 b83d 1e12 e53d b559 0e3d 386a d73d
00000210: 6c1f 68bd 88ff d43c a43e 3d3a 094b c83d
00000220: 6c65 023e fb8f 513c a15c 953d 0dae 6fbd
00000230: 2965 25bd 6542 2bbe 6737 dd3d 833c 17bd
00000240: fd0e 063e fb0c 8ebd fa37 823d ff43 56bd
00000250: 2a07 023e 26ba ea3d d20e 17bd 9380 9c3d
00000260: 6870 34bd 6245 053e 03eb aa3d bf66 253d
00000270: 1478 333d 2b64 ca3d dcda 423d 42f6 233c
00000280: a882 7ebc 3997 093e 3c59 4abd 510d 623d
00000290: 0595 103e 8a58 f9bc 689c a03d 4e95 7d3d
000002a0: 50f2 e13d 6c18 16bd 57d2 cd3c 9b97 8cbc
000002b0: 2f75 103e b1e2 673d b15b cd3c 057a 763d
000002c0: 0ca4 1b3d 7976 9c3c 2e15 0d3e 1d69 d13d
000002d0: 562c c83d e9a4 45bd 3c81 7f3d 90fe b83d
000002e0: a054 1e3e 2418 fe3d 60ed 193b 5ca1 363d
000002f0: 70f6 dc3c a4d5 5fbd 8e52 29bd 5df8 e03d
00000300: e8c9 133e cde4 2c3d 7809 96bd 7496 7bbe
00000310: 9bd3 42bd f493 0dbc c813 d33d dfc2 493d
00000320: 18f2 8b3d 34ff 893c 35c8 223d 833c e2bc
00000330: b38a d03d a76d 243e 699b e73d 63d7 123e
00000340: 6477 da3d aef4 b43d f7ff 1e3d 2038 403d
00000350: 19a1 05bd f607 433d de20 bb3d 0e07 6dbd
00000360: 9ece f5bc cf09 af3d 5ef2 c8bc 542f c53d
00000370: c0e8 523d e95b 9a3c 2a60 f8bc ffac d9bc
00000380: 7afb 8c3d 882d 73bd fe01 b93d a2e0 e13d
00000390: 50a7 15bc 6e91 34bc 85af 5cbd 85b3 20bc
000003a0: ebf5 1abd 7d94 983d bc07 cf3d e93c ec3d
000003b0: dad8 4a3c 462d 5fbe 232b 653d 9f1a c7bc
000003c0: 8a24 123e 1d1a ac3d 0da3 693d 6b91 8bbc
000003d0: d13c cf3d 3897 92bc f238 ab3d ddc8 59bc
000003e0: 4793 003d fd03 003c efc5 033d 2fee 143e
000003f0: a08d cd3c 9ee8 503d f550 fb3d 2c58 1d3d

core.experts.1.net.0.bias f4 [64]
-0.03432448 0.13592055 0.13331567 -0.020743946 0.13602644 0.0829019 -0.026640488 -0.03711523
0.09512654 0.022177288 0.16921781 -0.08402946 -0.01270944 -0.047265608 0.0471716 0.12475692
0.025929287 0.13743433 0.031038793 0.10606145 0.002513166 -0.0004123783 -0.07742469 0.004000405
0.03204112 0.0570064 0.026128545 -0.05786279 0.018784918 0.043211542 0.036823414 0.13678312
-0.06656783 0.08917825 0.14445318 0.14537172 -0.001975172 -0.082425654 -0.026849393 0.04353203
0.03161286 -0.011109385 0.024440035 0.058294654 0.04209442 -0.058512915 -0.009666114 0.088964455
-0.029092582 0.012654696 0.042154565 0.07023977 0.049163923 0.0049942224 0.082494475 0.033051785
-0.087761045 0.029196937 0.0882143 0.07413226 0.057000063 -0.011118644 -0.010299094 0.12128868
00000000: d397 0cbd c22e 0b3e e783 083e 35ef a9bc
00000010: 844a 0b3e 79c8 a93d 273d dabc 2406 18bd
00000020: b4d1 c23d 25ad b53c 6f47 2d3e a317 acbd
00000030: 413b 50bc 9599 41bd 0237 413d 8e80 ff3d
00000040: a869 d43c 96bb 0c3e 1145 fe3c bf36 d93d
00000050: eeb3 243b 7a34 d8b9 d690 9ebd d415 833b
00000060: 8d3d 033d 8b7f 693d 880b d63c 8801 6dbd
00000070: d4e2 993c 96fe 303d 26d4 163d e010 0c3e
00000080: b754 88bd 16a3 b63d 89eb 133e 53dc 143e
00000090: e371 01bb c8ce a8bd 42f3 dbbc a44e 323d
000000a0: 7c7c 013d 2304 36bc 7836 c83c 60c6 6e3d
000000b0: 336b 2c3d 3dab 6fbd 9f5e 1ebc ff32 b63d
000000c0: 9153 eebc a455 4f3c 44aa 2c3d ded9 8f3d
000000d0: 1c60 493d 93a6 a33b ddf2 a83d 4f61 073d
000000e0: 10bc b3bd 6a2e ef3c b3a9 b43d a8d2 973d
000000f0: e678 693d f92a 36bc 88bd 28bc 3366 f83d
