checkpoints/synth_best.pt (torch, 66326 bytes, 28 tensors)

embedding.embs.0.weight f4 [4, 8]
1.9269153 1.4872841 0.9007172 -2.105521 0.6784184 -1.2345449 -0.043067478 -1.604667
-0.7775797 1.6547084 -0.40649816 -1.4116566 -0.7579882 -0.58274466 -0.79465896 0.7620351
1.6288942 -0.17534377 -0.5035544 0.47239318 -0.78341305 1.1009773 0.79676414 1.7134035
1.2576193 1.3082696 0.6360549 1.3667716 -0.24823445 0.04880157 -0.28409386 0.8882667
00000000: 29a5 f63f 535f be3f 6795 663f dbc0 06c0
00000010: d4ac 2d3f 9105 9ebf 8667 30bd ba65 cdbf
00000020: 770f 47bf 7ccd d33f 8720 d0be 2ab1 b4bf
00000030: 840b 42bf c12e 15bf c56e 4bbf bb14 433f
00000040: 9b7f d03f 518d 33be f1e8 00bf 85dd f13e
00000050: c28d 48bf d3ec 8c3f bcf8 4b3f ce50 db3f
00000060: abf9 a03f 6175 a73f 7ed4 223f 5ff2 ae3f
00000070: 2c31 7ebe 28e4 473d c074 91be 7265 633f

embedding.embs.1.weight f4 [8, 8]
-1.3846737 -0.87123615 -0.22336592 1.7173615 0.31888032 -0.42451897 0.30572093 -0.7745925
-1.5678061 1.0125859 -0.91065013 -0.61064553 -1.2986459 2.1271024 -1.2409401 -0.5204135
-0.9205992 -0.64103115 0.055913452 0.54124147 -0.5171555 1.1897894 -0.82685775 -0.76880616
-1.404228 0.056863572 -0.05576332 0.68959934 -0.12877753 1.8517184 -1.1929154 1.379176
1.4711006 0.8746341 2.2310083 0.5405519 0.3248241 -0.22918215 -1.0670606 1.2930064
-0.16316254 0.54405105 0.030714333 0.44098622 0.5698706 -0.6743734 -2.222352 -0.78359514
0.035649747 -0.31703818 -1.3728846 -0.5613845 0.50907344 0.50692725 1.157145 0.021220073
0.776464 -0.47479245 -1.0818325 0.62731695 -1.7439835 -0.84931487 1.3106003 0.46597242
00000000: fd3c b1bf 5509 5fbf 09ba 64be 80d2 db3f
00000010: 4844 a33e 8d5a d9be 7487 9c3e b24b 46bf
00000020: dfad c8bf 6a9c 813f 5e20 69bf 4453 1cbf
00000030: 073a a6bf 7222 0840 20d7 9ebf d239 05bf
00000040: 64ac 6bbf 9e1a 24bf 8105 653d cd8e 0a3f
00000050: 4e64 04bf 054b 983f f3ac 53bf 7bd0 44bf
00000060: bebd b3bf c7e9 683d 1468 64bd 9589 303f
00000070: 42de 03be 1c05 ed3f 74b1 98bf d788 b03f
00000080: 064d bc3f 05e8 5f3f d7c8 0e40 9c61 0a3f
00000090: 584f a63e baae 6abe 7195 88bf 3c81 a53f
000000a0: 1514 27be ee46 0b3f a09c fb3c f2c8 e13e
000000b0: 0ae3 113f bca3 2cbf 043b 0ec0 b199 48bf
000000c0: 7805 123d d452 a2be afba afbf e5b6 0fbf
000000d0: a352 023f fcc5 013f 541d 943f b8d5 ad3c
000000e0: 58c6 463f ff17 f3be 7d79 8abf d897 203f
000000f0: da3a dfbf b36c 59bf c0c1 a73f f093 ee3e

wide.weight f4 [32, 19]
0.217953 -0.087080084 -0.09449974 -0.20770591 -0.13598621 0.061030596 -0.022115117 -0.16475204
0.01513846 -0.14940712 -0.19355011 -0.11834991 -0.21901558 -0.16201678 0.23029889 0.059043158
0.05960065 -0.21000263 -0.15708748 -0.08418502 0.044005033 -0.21429135 -0.10519734 -0.12812492
-0.007475849 -0.093259566 -0.025373787 -0.16354544 -0.16625866 -0.12396129 -0.09460534 -0.1777409
0.19330238 -0.03681691 0.17664303 0.08328275 -0.20376585 0.16581978 -0.07450313 -0.092541024
-0.2089753 -0.21660599 0.08324184 -0.069766946 0.07082169 -0.20658357 0.15895392 -0.18563063
-0.021680646 0.015909236 0.12884316 0.17475812 0.2261277 -0.209061 0.07746333 -0.11338929
-0.013719313 -0.20144925 0.23811881 -0.19833203 0.119037665 0.11362663 0.042022113 -0.15646172
0.17555629 0.018835912 -0.0033257036 -0.16987702 0.08140249 -0.015511979 -0.12441518 0.22917552
0.020156384 -0.09622419 -0.14724481 0.00939186 0.14509326 -0.060340073 -0.13012594 -0.06853114
-0.15819193 0.07457653 0.19245629 -0.22545448 0.062742315 0.12661201 0.051436678 -0.08845144
0.13412337 0.1304306 0.09713871 -0.042152964 -0.05647376 0.010750503 -0.043951947 -0.06548819
0.14380524 0.22547586 0.007916415 -0.024982236 -0.016401898 -0.025185369 0.025199505 0.07350862
-0.2230507 -0.053059623 0.22133626 0.10995712 0.0059561934 -0.10688785 -0.1623173 -0.23722327
-0.09533524 0.09990653 0.16387257 0.12431011 -0.22262667 -0.16529211 -0.008258482 0.19615348
0.004415578 -0.08443105 0.06498182 -0.117033415 -0.12919523 0.14485131 -0.119052805 -0.054197766
-0.22878891 0.1509203 0.19721007 0.07692339 -0.18124107 -0.25650004 -0.19343174 0.16850835
0.1260751 0.22306173 0.10109279 0.026598446 -0.032527514 -0.20421758 -0.22650701 -0.18451254
0.07582281 -0.101681225 -0.07175443 -0.10356434 -0.07316114 -0.13554591 -0.16939096 0.10583738
-0.07087868 0.16991541 -0.10005124 -0.138101 -0.008887444 -0.14331996 -0.101484634 -0.25046813
0.13749208 -0.18935183 0.14742386 0.08346252 0.17264637 -0.20730957 0.19207537 -0.14013107
0.11293012 0.19903879 -0.006864993 0.020730583 -0.06295182 -0.22347201 0.14273912 -0.19699699
0.1629398 0.20382483 0.1845628 -0.022745276 -0.16440456 0.08415404 0.15423547 -0.25356558
-0.08267648 -0.10758703 -0.04742687 -0.13344543 -0.09913637 -0.085260436 -0.24783857 0.21003263
0.17230904 -0.037485227 0.0010105276 -0.121282466 -0.23383418 -0.25113156 0.06508712 -0.15219256
-0.11965222 -0.042800926 -0.056223728 -0.106344305 0.030379862 -0.08121871 -0.049525253 -0.13121022
-0.19440123 0.20904912 -0.08752483 0.039954484 -0.057519395 0.042099867 0.19755033 0.12598114
-0.22086513 0.110741325 0.20330806 0.08248433 0.16332811 0.2531678 -0.03346582 0.06844865
-0.18157443 -0.022995552 0.1417808 0.14102098 -0.17435482 -0.21395762 -0.18900043 -0.24629022
-0.14427876 -0.08927456 0.12267128 0.005471872 -0.20555224 -0.21643864 0.14711365 -0.20228858
0.0033458923 0.09024475 -0.07479349 -0.057439625 0.012626803 -0.08686185 -0.12768354 -0.22795628
-0.19802889 -0.1369679 0.22957665 -0.093013555 -0.16796468 0.04582741 0.049392685 0.13143566
00000000: 122f 5f3e 0b57 b2bd 1489 c1bd dcb0 54be
00000010: f83f 0bbe 38fb 793d c32a b5bc c2b4 28be
00000020: 4e07 783c 2efe 18be 0032 46be 7061 f2bd
00000030: 9f45 60be bae7 25be 79d3 6b3e 3dd7 713d
00000040: d01f 743d ee0a 57be 8adb 20be 3269 acbd
00000050: 9f3e 343d 316f 5bbe b471 d7bd 2e33 03be
00000060: f7f7 f4bb dffe bebd b0dc cfbc 7578 27be
00000070: b63f 2abe 6bdf fdbd 72c0 c1bd b601 36be
00000080: 0ff1 453e 54cd 16bd e9e1 343e 2590 aa3d
00000090: ffa7 50be a9cc 293e 1995 98bd 2686 bdbd
000000a0: 9ffd 55be f6cd 5dbe b37a aa3d f9e1 8ebd
000000b0: f60a 913d a58a 53be d1c4 223e f515 3ebe
000000c0: 9c9b b1bc 1654 823c 76ef 033e cbf3 323e
000000d0: 058e 673e 1614 56be 18a5 9e3d a538 e8bd
000000e0: f8c6 60bc b648 4ebe 6bd5 733e 8d17 4bbe
000000f0: 05ca f33d 14b5 e83d 611f 2c3d 8037 20be
00000100: 07c5 333e c54d 9a3c 0cf4 59bb 3ef4 2dbe
00000110: 59b6 a63d f525 7ebc 63cd febd fdac 6a3e
00000120: 001f a53c 3011 c5bd 58c7 16be 51e0 193c
00000130: 5493 143e 2727 77bd bc3f 05be 0e5a 8cbd
00000140: 11fd 21be 94bb 983d 4313 453e 8add 66be
00000150: 0b7f 803d 94a6 013e 44af 523d 0726 b5bd
00000160: a357 093e 998f 053e a9f0 c63d 96a8 2cbd
00000170: 0851 67bd e122 303c f506 34bd ac1e 86bd
00000180: ae41 133e 25e3 663e dab3 013c 8ca7 ccbc
00000190: 465d 86bc 8c51 cebc 316f ce3c b08b 963d
000001a0: 6767 64be 0c55 59bd f9a5 623e 3331 e13d
000001b0: 2c2c c33b 04e8 dabd 8236 26be a8ea 72be
000001c0: 1f3f c3bd cb9b cc3d 36ce 273e 4d96 fe3d
000001d0: 3ff8 63be 5642 29be 964e 07bc 75dc 483e
000001e0: 8eb0 903b 30ea acbd 3015 853d 37af efbd
000001f0: c14b 04be e753 143e f5d1 f3bd 7afe 5dbd
00000200: a447 6abe da8a 1a3e 70f1 493e 038a 9d3d
00000210: 4297 39be f953 83be f812 46be 748d 2c3e
00000220: d519 013e 4b6a 643e bd09 cf3d fce4 d93c
00000230: 923b 05bd 6a1e 51be 74f1 67be dbf0 3cbe
00000240: fd48 9b3d 3f3e d0bd fdf3 92bd 8a19 d4bd
00000250: 82d5 95bd 8ccc 0abe d374 2dbe 45c1 d83d
00000260: d728 91bd 4efe 2d3e aae7 ccbd 596a 0dbe
00000270: a49c 11bc 78c2 12be 2dd7 cfbd 5c3d 80be
00000280: b9ca 0c3e 72e5 41be 48f6 163e 66ee aa3d
00000290: 36ca 303e f648 54be 68af 443e 857e 0fbe
000002a0: e847 e73d d3d0 4b3e bcf3 e0bb 2fd3 a93c
000002b0: e2ec 80bd d9d5 64be 342a 123e 94b9 49be
000002c0: b1d9 263e 75b7 503e 08fe 3c3e 4d54 babc
000002d0: ab59 28be f458 ac3d e7ef 1d3e 59d3 81be
000002e0: 4952 a9bd 9756 dcbd ad42 42bd eba5 08be
000002f0: 0208 cbbd 069d aebd 65c9 7dbe cb12 573e
00000300: c871 303e 1c8a 19bd ae73 843a f162 f8bd
00000310: 3a72 6fbe 5194 80be 654c 853d 5ed8 1bbe
00000320: 390c f5bd 0650 2fbd da4a 66bd 0bcb d9bd
00000330: 30df f83c ff55 a6bd feda 4abd f95b 06be
00000340: 1e11 47be f910 563e 3840 b3bd 50a7 233d
00000350: 7599 6bbd e970 2c3d a24a 4a3e 3301 013e
00000360: 782a 62be 59cc e23d fd2f 503e 8bed a83d
00000370: 7c3f 273e 369f 813e 7513 09bd ce2e 8c3d
00000380: a6ee 39be 2b61 bcbc fc2e 113e ce67 103e
00000390: 128a 32be b517 5bbe 5489 41be 8133 7cbe
000003a0: d0bd 13be 95d5 b6bd 143b fb3d 644d b33b
000003b0: 497c 52be 17a2 5dbe f6a4 163e bd24 4fbe
000003c0: c246 5b3b 3dd2 b83d 542d 99bd d045 6bbd
000003d0: a6e0 4e3c a0e4 b1bd 79bf 02be 5f6d 69be
000003e0: 16c8 4abe 5041 0cbe 2416 6b3e e47d bebd
000003f0: effe 2bbe 86b5 3b3d fc4f 4a3d 1297 063e

wide.bias f4 [32]
0.056594282 -0.1762656 0.11461625 0.105307385 -0.1894472 0.09438893 0.0054095862 0.13487576
0.16364704 -0.19542037 0.23813146 0.21499625 0.12421717 -0.19612506 -0.095986165 -0.05720891
-0.046996042 0.16224778 0.10787457 0.20426595 -0.09067759 0.07614159 0.0809036 -0.16656317
-0.1904005 -0.12628485 0.18949853 -0.21244076 -0.19044906 0.1299169 0.15532003 0.22094445
00000000: 68cf 673d f87e 34be edbb ea3d 66ab d73d
00000010: 72fe 41be fc4e c13d e642 b13b df1c 0a3e
00000020: 1793 273e 471c 48be bcd8 733e fa27 5c3e
00000030: 9265 fe3d 02d5 48be 6594 c4bd e453 6abd
00000040: ec7e 40bd 4824 263e 58ed dc3d 182b 513e
00000050: 2cb5 b9bd 1ff0 9b3d c9b0 a53d 898f 2abe
00000060: 59f8 42be d150 01be e70b 423e 128a 59be
00000070: 1405 43be f008 053e 370c 1f3e 433f 623e

deep_input.net.0.weight f4 [64, 19]
-0.18954876 -0.17833377 0.12252246 0.22936468 0.15580885 0.032234542 0.10491529 0.19827098
-0.11781765 -0.11257314 0.18076034 -0.18233937 -0.10263745 0.18685392 0.09212397 0.061723784
-0.07331416 -0.025336457 0.23262593 -0.15394373 -0.013486375 0.11743058 -0.15114935 0.23175116
-0.11897724 -0.0565412 -0.07305278 -0.14732441 -0.22569545 0.15224044 0.041580163 -0.18335178
-0.117245235 0.24893524 0.102130085 0.10635005 -0.16876486 -0.10158634 -0.04455551 -0.045680586
-0.16365385 0.017975911 0.03901689 -0.033895966 0.00999234 -0.09693683 0.05634313 0.06990391
-0.11633498 -0.23061517 0.11270356 0.050523385 -0.122336194 0.22723247 -0.09892762 0.16271177
0.124211535 -0.18571086 0.13762847 -0.209757 -0.13318722 -0.04598165 -0.14835805 0.23943605
-0.039207555 0.10362132 -0.19227614 0.12529582 -0.048861627 -0.18599506 0.031204283 0.10215121
0.1952 -0.15352085 -0.10026245 0.035453685 0.050579537 0.07594278 0.1098653 -0.07327881
0.108023696 0.17741105 -0.07076831 0.18146685 0.097774684 0.21855406 -0.14968064 -0.093865745
-0.08555642 0.030040665 0.12017574 -0.11100023 0.09550016 -0.062798105 0.12224069 -0.0038050392
-0.2213646 -0.14163655 -0.17048396 0.12947065 -0.16209875 -0.026672373 0.032767743 -0.13424149
0.054796096 -0.20331578 -0.15986224 -0.23439854 -0.100960314 -0.08671694 0.012883427 -0.049172755
0.13157432 0.21702324 0.10483913 -0.08836459 -0.24615374 0.11619749 -0.08108964 0.090142705
0.18589275 0.055516724 0.2480053 0.24860227 0.08167214 -0.19954632 0.23331636 -0.14169247
-0.081259206 0.16000076 0.21024396 0.037049588 0.03350782 -0.16145651 -0.025521277 0.18859518
0.027418287 -0.011866186 -0.025636302 -0.0779719 0.16858084 -0.012557307 0.14657746 -0.072652645
0.10537564 0.0797041 0.03784353 0.12412309 0.13876945 0.18151855 0.19588998 -0.08912785
-0.17966083 0.036854584 0.0104398215 -0.05939858 -0.05244899 0.015986005 0.1771201 0.08663986
-0.059601046 -0.07856066 -0.06970974 -0.074250944 0.19627549 0.11225893 0.19595574 0.010687934
0.032928787 0.09300165 -0.2006285 0.0016467412 -0.0021955613 -0.10012008 -0.16503547 0.17240039
0.21768846 0.13406153 0.25027895 -0.06772299 -0.011943866 0.05626804 -0.013177742 -0.02787548
-0.15896006 0.06342418 -0.110346235 -0.018029882 0.22408907 -0.06756429 -0.05533675 0.1609491
-0.09557707 -0.037815325 0.22594759 -0.11065037 -0.17970186 -0.14077826 -0.077295646 -0.12132228
-0.10764549 0.08298353 0.032395385 -0.096232876 -0.16330054 -0.08533037 -0.08942524 -0.0752429
-0.19951077 0.07566166 -0.19824073 -0.21025857 -0.21214141 0.12813643 -0.17031573 -0.12650104
0.14727728 0.09239058 0.100068234 -0.18520498 -0.19644745 -0.054387122 0.20554878 0.05511059
-0.20052382 0.033793796 -0.21068022 -0.03661694 -0.07324236 0.22532597 0.05718483 -0.01160995
0.06886333 -0.09678045 0.07492238 0.058423728 0.07625503 -0.10230463 0.22842398 -0.06193907
-0.060155082 0.16384247 0.2158292 0.25405487 0.099423096 -0.10849318 0.13792661 0.1974872
-0.2169069 -0.009769642 -0.15668468 0.032592244 0.102504134 -0.041296434 -0.0074355905 0.106519856
00000000: 1219 42be 219d 36be 0eed fa3d 93de 6a3e
00000010: 5b8c 1f3e 5e08 043d d4dd d63d 8c07 4b3e
00000020: 614a f1bd bf8c e6bd 3d19 393e 2cb7 3abe
00000030: 9533 d2bd a256 3f3e 7eab bc3d 14d2 7c3d
00000040: bc25 96bd 678e cfbc 7e35 6e3e 6da3 1dbe
00000050: f5f5 5cbc 727f f03d e5c6 1abe 2d50 6d3e
00000060: 57aa f3bd bf97 67bd b29c 95bd 36dc 16be
00000070: b51c 67be ebe4 1b3e f64f 2a3d 92c0 3bbe
00000080: 451e f0bd e1e8 7e3e 9429 d13d 0ece d93d
00000090: b2d0 2cbe 800c d0bd d77f 36bd 911b 3bbd
000000a0: e094 27be 3842 933c 2dd0 1f3d 7fd6 0abd
000000b0: e9b6 233c d186 c6bd 0ec8 663d c829 8f3d
000000c0: 0941 eebd 6226 6cbe 20d1 e63d 9cf1 4e3d
000000d0: 668b fabd a1af 683e 909a cabd ea9d 263e
000000e0: 9e62 fe3d fd2a 3ebe 7aee 0c3e 8aca 56be
000000f0: 3b62 08be 4157 3cbd 2ceb 17be b92e 753e
00000100: 1a98 20bd 6a37 d43d 09e4 44be 8c4d 003e
00000110: 2123 48bd 7d75 3ebe 20a0 ff3c a734 d13d
00000120: 82e2 473e 9234 1dbe 6656 cdbd e237 113d
00000130: 7d2c 4f3d e387 9b3d 0f01 e13d 3313 96bd
00000140: 873b dd3d 3eab 353e faee 90bd 72d2 393e
00000150: 183e c83d a3cc 5f3e e245 19be af3c c0bd
00000160: 3438 afbd d717 f63c b31e f63d 1754 e3bd
00000170: 9695 c33d 4b9c 80bd 5459 fa3d f75d 79bb
00000180: 67ad 62be 2c09 11be 5993 2ebe f493 043e
00000190: 37fd 25be 0580 dabc 7837 063d 9a76 09be
000001a0: df71 603d 0332 50be edb2 23be 2c06 70be
000001b0: 48c4 cebd a798 b1bd 0215 533c 5f69 49bd
000001c0: 6bbb 063e 573b 5e3e e6b5 d63d 7ff8 b4bd
000001d0: ba0f 7cbe f3f8 ed3d 5312 a6bd bd9c b83d
000001e0: ab5a 3e3e 8165 633d 1af5 7d3e 9891 7e3e
000001f0: b943 a73d df55 4cbe 7cea 6e3e d517 11be
00000200: 3a6b a6bd 3dd7 233e 314a 573e 4fc1 173d
00000210: 7f3f 093d db54 25be ff11 d1bc 181f 413e
00000220: 519c e03c 646a 42bc 3903 d2bc bbaf 9fbd
00000230: 75a0 2c3e 2abd 4dbc 6718 163e e9ca 94bd
00000240: 2fcf d73d e73b a33d d101 1b3d 3f34 fe3d
00000250: 9419 0e3e 00e0 393e 6297 483e aa88 b6bd
00000260: 02f9 37be d5f4 163d c90b 2b3c ed4b 73bd
00000270: c1d4 56bd 15f5 823c f95e 353e 3d70 b13d
00000280: 3a20 74bd 69e4 a0bd fbc3 8ebd e110 98bd
00000290: 71fc 483e 03e8 e53d 9fa8 483e 721c 2f3c
000002a0: 56e0 063d a677 be3d 8f71 4dbe 77d7 d73a
000002b0: 68e3 0fbb c20b cdbd 0fff 28be ba89 303e
000002c0: b9e9 5e3e 6d47 093e 9024 803e 5ab2 8abd
000002d0: 34b0 43bc 5179 663d 75e7 57bc 1e5b e4bc
000002e0: 6dc6 22be 89e4 813d 35fd e1bd 67b3 93bc
000002f0: 9b77 653e 255f 8abd caa8 62bd d7cf 243e
00000300: e9bd c3bd 3ee4 1abd ce5e 673e a99c e2bd
00000310: c403 38be 2d28 10be 2e4d 9ebd d177 f8bd
00000320: 3d75 dcbd 45f3 a93d 06b1 043d be15 c5bd
00000330: 4238 27be b0c1 aebd 9524 b7bd f318 9abd
00000340: 8d4c 4cbe 80f4 9a3d 9eff 4abe 064e 57be
00000350: 993b 59be 3236 033e 3f67 2ebe 7d89 01be
00000360: dbcf 163e 4637 bd3d 93f0 cc3d 60a6 3dbe
00000370: 8529 49be 08c5 5ebd 617b 523e a4bb 613d
00000380: 1e56 4dbe 5d6b 0a3d 8ebc 57be a5fb 15bd
00000390: 1700 96bd dabb 663e a43a 6a3d a937 3ebc
000003a0: 3808 8d3d d434 c6bd e870 993d b84d 6f3d
000003b0: 992b 9c3d 1785 d1bd fae7 693e d2b3 7dbd
000003c0: 2d65 76bd 52c6 273e 5402 5d3e 7b13 823e
000003d0: 569e cb3d ac31 debd a23c 0d3e 163a 4a3e
000003e0: d81c 5ebe d910 20bc f371 20be 727f 053d
000003f0: b0ed d13d 7326 29bd 41a6 f3bb 1527 da3d

deep_input.net.0.bias f4 [64]
-0.053690646 -0.014937455 -0.14755651 0.0757203 -0.21687749 0.036605924 0.16699958 0.011844153
0.017174892 0.0029037371 -0.055848368 -0.011105885 -0.064416535 -0.16767564 -0.09016344 0.25967845
-0.039366353 0.06865061 0.16258429 0.010257823 -0.092231415 -0.1231091 -0.08104874 0.09015504
-0.17907484 -0.017436508 0.117091686 0.15428989 0.07926604 0.07662843 0.12664734 0.114018515
0.10058133 -0.07579971 -0.19429964 -0.05225068 -0.00954845 0.020337211 0.00044744066 0.09234162
0.18509446 -0.060254276 -0.22594 -0.13217483 -0.08334337 0.1610676 -0.12460289 0.011265954
-0.081238635 -0.10764903 0.13701862 -0.073379695 -0.038750567 -0.14755073 -0.051342778 0.06365602
0.011583836 -0.08080114 0.09757443 -0.05766543 -0.10096414 -0.13932218 -0.016509624 -0.23312971
00000000: b9ea 5bbd 3abc 74bc 0e19 17be 3f13 9b3d
00000010: 2215 5ebe 18f0 153d f001 2b3e fa0d 423c
00000020: 5cb2 8c3c a04c 3e3b 42c1 64bd 75f5 35bc
00000030: d1ec 83bd 2ab3 2bbe 9ca7 b8bd 93f4 843e
00000040: 9d3e 21bd b198 8c3d 7f7c 263e 6e10 283c
00000050: d3e3 bcbd a020 fcbd e2fc a5bd 35a3 b83d
00000060: 655f 37be 02d7 8ebc c4cd ef3d 2bfe 1d3e
00000070: 3c56 a23d 5eef 9c3d d7af 013e 8a82 e93d
00000080: 96fd cd3d e13c 9bbd 7cf6 46be cf04 56bd
00000090: 1a71 1cbc 399a a63c 7896 ea39 9a1d bd3d
000000a0: 6789 3d3e 30cd 76bd d15c 67be d758 07be
000000b0: eeaf aabd e8ee 243e cd2f ffbd d694 383c
000000c0: 7160 a6bd 1877 dcbd 9c4e 0c3e 1848 96bd
000000d0: eab8 1ebd 8a17 17be ce4c 52bd 165e 823d
000000e0: 21ca 3d3c 117b a5bd 1ad5 c73d 9632 6cbd
000000f0: 49c6 cebd 79aa 0ebe 313f 87bc 8eb9 6ebe

deep_input.net.3.weight f4 [32, 64]
0.09136662 -0.08228624 -0.07066702 -0.0062556677 0.028862074 -0.030260071 0.07302958 -0.08765684
0.035791874 -0.01823001 -0.12092913 -0.070791505 0.015248067 0.0051912577 0.07302813 0.06451873
-0.08144195 -0.06669692 -0.034784254 -0.10192775 -0.05308422 -0.12222634 0.033109 0.075788274
-0.011128696 -0.10859302 -0.1121246 -0.061375324 0.014270575 -0.008470312 0.010917685 0.094662
0.041267652 0.013779533 -0.03573134 0.034785938 0.023974616 -0.133956 -0.09922292 -0.014754179
0.029538296 0.04998811 -0.08186844 -0.13711934 -0.01816188 -0.030248864 0.013349085 -0.05766786
0.07869184 -0.008305491 0.078221016 -0.09834977 0.032464042 0.0012445669 -0.08634937 0.049731735
-0.1380308 0.08165443 -0.007874101 -0.00020196117 0.04509304 -0.007824392 0.029904028 0.0636698
-0.08991248 0.08749938 -0.009381367 -0.02170606 0.024973746 0.10306232 -0.06105067 -0.08103058
0.07901909 -0.055393785 0.045262747 -0.011596867 0.04407182 0.110190645 -0.058108106 -0.05428783
0.06487337 0.01317526 -0.014049647 -0.105566226 0.11708689 -0.0016201755 -0.017356707 -0.04497285
-0.011709221 0.06501393 0.004484387 0.11425238 -0.00043695746 -0.012901421 0.07585817 0.0064092316
-0.016842281 0.060248714 0.10345524 0.03301213 0.09618375 0.090587325 0.04893151 0.048572775
0.04767135 0.022213817 0.110466 0.12599938 0.053272463 0.0009900504 0.119567014 -0.0899814
0.09664372 0.08946793 0.08621229 -0.00052507035 -0.092456125 0.09771265 -0.046054572 0.038191184
0.07545386 -0.10808008 0.013039233 -0.035699733 0.09455054 -0.078011 0.081390835 0.08340113
0.059561834 0.11063486 0.014308647 -0.11125483 0.0742316 -0.0009299034 -0.0066962815 -0.13257043
-0.04226007 -0.07466767 0.1175313 0.085147575 0.09298747 0.07620184 -0.0822078 -0.06041561
-0.057131425 -0.058665246 0.09156761 0.029291904 0.11191696 -0.017083516 -0.11771457 -0.046888232
0.077929385 0.066557445 0.03914189 -0.046218026 -0.12829787 -0.07613326 0.048269715 -0.048748367
0.06132415 0.041861497 -0.04759805 0.065606356 -0.043968223 -0.0042047095 -0.04340728 -0.1258151
0.010366156 0.030449295 -0.058029585 0.08168695 -0.11269178 -0.13056873 -0.08130988 -0.051708262
-0.023908624 -0.027055947 0.049252547 -0.11653138 0.0076524825 -0.0016420119 0.034344412 0.1134834
0.07429337 -0.08342392 -0.11527571 -0.03087981 -0.061609957 0.03556435 -0.0046169874 0.08969797
0.050661087 -0.02217172 0.0008335625 0.021184053 -0.009713036 0.10783841 -0.11627671 0.047009416
-0.08281044 -0.12557743 -0.02758284 0.07237733 0.09195385 0.0394099 -0.012002406 -0.01782635
-0.06856232 -0.023535749 -0.016647452 0.09545874 0.07229826 -0.09108439 -0.018419228 -0.07803454
-0.008737093 -0.09959756 0.014348889 -0.09467675 0.10426725 0.08971546 -0.10292331 -0.11536132
-0.014204168 -0.02472689 0.030681916 -0.09648822 0.0574273 -0.09272406 -0.07786197 -0.07679158
0.04994668 -0.011668705 -0.13214622 -0.088501774 -0.06952448 -0.12937278 0.0219083 0.026331699
-0.041602287 -0.052085508 -0.006718114 -0.100714125 -0.09085034 -0.0017358047 0.11155489 -0.05353439
0.06269641 -0.040845823 -0.047414836 -0.11932408 0.086407065 0.10318908 -0.01185647 0.060691074
00000000: 6c1e bb3d b085 a8bd dfb9 90bd 58fc ccbb
00000010: 2870 ec3c f8e3 f7bc 8890 953d 6e85 b3bd
00000020: 809a 123d 1a57 95bc b1a9 f7bd 23fb 90bd
00000030: 07d3 793c 6d1b aa3b c68f 953d 6522 843d
00000040: 09cb a6bd 6598 88bd ef79 0ebd 7fbf d0bd
00000050: d76e 59bd ce51 fabd 4e9d 073d e236 9b3d
00000060: 2255 36bc 0466 debd 95a1 e5bd b164 7bbd
00000070: 21cf 693c 10c7 0abc 17e0 323c 27de c13d
00000080: 4508 293d 8dc3 613c 075b 12bd b37b 0e3d
00000090: 6a66 c43c c32b 09be 6335 cbbd 83bb 71bc
000000a0: 4cfa f13c 55c0 4c3d a4aa a7bd 0369 0cbe
000000b0: 39c8 94bc 77cc f7bc 1fb6 5a3c 2235 6cbd
000000c0: 3029 a13d c113 08bc 5732 a03d 9b6b c9bd
000000d0: 04f9 043d bc20 a33a f0d7 b0bd 81b3 4b3d
000000e0: f257 0dbe 703a a73d 6002 01bc 8ac5 53b9
000000f0: 7bb3 383d e131 00bc 4bf9 f43c 5065 823d
00000100: 0924 b8bd e032 b33d 4eb4 19bc e8d0 b1bc
00000110: be95 cc3c 5612 d33d 4410 7abd 5cf3 a5bd
00000120: c3d4 a13d 98e4 62bd 6e65 393d c900 3ebc
00000130: a784 343d a2ab e13d c402 6ebd ea5c 5ebd
00000140: 54dc 843d 0cdd 573c 7e30 66bc 1b33 d8bd
00000150: 40cb ef3d 125c d4ba a72f 8ebc 7335 38bd
00000160: 08d8 3fbc 0626 853d c4f1 923b 27fd e93d
00000170: 7017 e5b9 7b60 53bc 875b 9b3d 8804 d23b
00000180: d3f8 89bc 5bc7 763d 57e0 d33d ba37 073d
00000190: fcfb c43d d985 b93d 686c 483d 3ff4 463d
000001a0: 0943 433d c0f9 b53c 003c e23d fb05 013e
000001b0: 3a34 5a3d 94c4 813a 8ddf f43d 2b48 b8bd
000001c0: 25ed c53d f63a b73d 1290 b03d e0a4 09ba
000001d0: a359 bdbd 921d c83d b8a3 3cbd 5c6e 1c3d
000001e0: 8e87 9a3d 1759 ddbd 82a2 553c e239 12bd
000001f0: b7a3 c13d 3bc4 9fbd 3db0 a63d 36ce aa3d
00000200: 1cf7 733d 8894 e23d d16e 6a3c 93d9 e3bd
00000210: bd06 983d c3c4 73ba 7b6c dbbb 8bc0 07be
00000220: e518 2dbd 5deb 98bd 40b4 f03d da61 ae3d
00000230: 3770 be3d b60f 9c3d 905c a8bd 5c76 77bd
00000240: a402 6abd f84a 70bd cd87 bb3d 93f5 ef3c
00000250: b834 e53d bbf2 8bbc 5614 f1bd e00d 40bd
00000260: 7199 9f3d 454f 883d 3f53 203d 1d4f 3dbd
00000270: 8460 03be c1eb 9bbd 77b6 453d 5eac 47bd
00000280: 082f 7b3d f676 2b3d 2cf6 42bd a05c 863d
00000290: 0618 34bd a9c7 89bb d5cb 31bd acd5 00be
000002a0: cfd6 293c cd70 f93c 6eb0 6dbd 7d4b a73d
000002b0: f3ca e6bd cfb3 05be cb85 a6bd 0bcc 53bd
000002c0: 05dc c3bc 6fa4 ddbc 0abd 493d 01a8 eebd
000002d0: adc1 fa3b c738 d7ba baac 0c3d fc69 e83d
000002e0: 1f27 983d 29da aabd ac15 ecbd a8f7 fcbc
000002f0: b95a 7cbd edab 113d 194a 97bb 92b3 b73d
00000300: 0082 4f3d 78a1 b5bc 6f83 5a3a 2e8a ad3c
00000310: 6d23 1fbc 62da dc3d 7c22 eebd f28c 403d
00000320: 8598 a9bd 5f97 00be 68f5 e1bc 913a 943d
00000330: 4d52 bc3d 466c 213d bda5 44bc 9108 92bc
00000340: 676a 8cbd 0bce c0bc 3d60 88bc df7f c33d
00000350: 1c11 943d 748a babd ece3 96bc 93d0 9fbd
00000360: 0626 0fbc cef9 cbbd 9a17 6b3c e2e5 c1bd
00000370: 118a d53d bdbc b73d 75c9 d2bd 8e42 ecbd
00000380: 99b8 68bc 0c90 cabc a458 fb3c 9e9b c5bd
00000390: e338 6b3d 1de6 bdbd 1976 9fbd e744 9dbd
000003a0: e494 4c3d 192e 3fbc 5751 07be 6b40 b5bd
000003b0: da62 8ebd 4c7a 04be 0979 b33c 93b5 d73c
000003c0: 2967 2abd 9d57 55bd a023 dcbb 3543 cebd
000003d0: be0f babd f183 e3ba e476 e43d e046 5bbd
000003e0: fa66 803d f34d 27bd 0f36 42bd 2f60 f4bd
000003f0: 30f6 b03d cc54 d33d a441 42bc 3497 783d

deep_input.net.3.bias f4 [32]
0.04861389 -0.1115996 0.07333667 -0.025413167 0.10385091 0.054100256 0.026323259 0.08843649
-0.06502274 0.06830796 0.08081981 -0.040051322 0.060181756 -0.14297263 -0.05186606 0.072939
0.09739914 -0.08199324 0.024035497 -0.0094598 0.15254053 -0.14099003 0.0030961633 -0.08385555
-0.080586396 -0.037633155 -0.08200346 0.08332491 -0.044680584 0.06477776 -0.044327654 0.032646757
00000000: 5c1f 473d 558e e4bd 8931 963d 462f d0bc
00000010: c9af d43d 3b98 5d3d e0a3 d73c 311e b53d
00000020: a42a 85bd 0be5 8b3d db84 a53d db0c 24bd
00000030: 2581 763d 6b67 12be 8171 54bd 0b61 953d
00000040: 3379 c73d 12ec a7bd 17e6 c43c 47fd 1abc
00000050: 9633 1c3e b15f 10be 00e9 4a3b 75bc abbd
00000060: 7b0a a5bd 3925 1abd 6ef1 a7bd 40a6 aa3d
00000070: fd02 37bd 34aa 843d ea90 35bd 9bb8 053d

core.experts.0.net.0.weight f4 [32, 64]
-0.08778813 0.10232769 0.10822044 0.09680928 -0.04835857 0.081650764 -0.10652181 0.05807607
-0.0080670705 -0.10902378 -0.10336541 -0.11441901 0.0212887 -0.036868382 -0.052834935 0.12407594
-0.042947672 0.03262116 -0.015364588 0.084949605 0.03441878 0.08813669 0.030159522 -0.027396038
0.11794266 -0.007265222 -0.07814793 0.04285751 -0.009992226 -0.09778987 0.013360728 -0.03227999
-0.04754231 -0.05863469 -0.05444732 -0.050121427 0.02165772 0.1170109 -0.07771274 -0.058915272
-0.08392725 -0.0017022718 0.009858195 -0.086381264 0.054290514 -0.10409618 0.122072875 0.021819001
-0.014022696 -0.044127487 0.06308237 0.08865941 -0.08244553 -0.027377024 0.09375781 -0.027529025
-0.086612806 -0.03660818 0.004477576 -0.023467056 -0.083878696 -0.07831152 0.032737672 0.08781505
0.095215134 -0.032680266 0.031232229 -0.11515762 0.038030494 0.10212298 0.040466506 -0.05998548
0.083435655 -0.14168793 -0.040708173 -0.04779248 -0.14589101 -0.0820386 -0.10622573 0.01779165
-0.035528567 0.032339744 -0.044032604 0.085881345 -0.009743783 0.08689872 0.076484434 -0.1139195
-0.09880317 0.059670154 0.09042441 -0.1188497 -0.017735478 -0.07176776 0.09291605 0.07877932
0.07018038 0.049563494 -0.031607237 0.09549781 -0.079136 -0.011003288 -0.05246118 -0.111428015
-0.07789529 0.010241431 -0.031833105 -0.100975186 -0.036175657 -8.269289e-05 -0.10705848 0.05769409
-0.12516342 -0.018502792 -0.12405546 -0.13338882 -0.03465075 0.091496736 0.09749613 0.024116408
0.074005224 -0.08625295 0.052570123 0.05741551 -0.13454351 -0.11425447 0.030872328 -0.010379
-0.08981674 -0.098637305 0.0907069 0.01216583 0.004655698 -0.10961125 0.11017806 -0.090315
0.05974257 -0.013433602 0.0029090224 0.05647649 -0.031415626 -0.04480789 0.09796805 -0.09389941
0.05441546 -0.029768439 -0.047930285 0.08001013 0.023347324 -0.12502949 0.11341843 -0.07062465
0.099727646 -0.053351417 0.12260801 0.028069181 -0.0047111004 0.050183985 0.0035900949 -0.059527613
0.07147819 0.07551401 -0.019723753 0.12184178 0.005284715 -0.06936432 -0.069265224 0.08720325
-0.054228887 0.08558586 -0.11704689 0.0011051499 -0.08164942 0.0477254 0.10651377 0.04637985
-0.043039493 -0.11510797 -0.055206526 -0.07806556 0.114601694 -0.06486523 0.052528337 0.096864395
0.05341655 -0.10922103 -0.017665017 -0.04056037 0.08372789 -0.008931815 -0.0018782029 0.10957672
0.008707862 0.036012635 -0.05751443 0.06244699 -0.00077518326 -0.049896955 -0.00064795837 -0.11617102
-0.01653178 0.032544143 -0.14279866 -0.08852253 0.054801036 -0.011053183 -0.028126843 -0.0086259125
-0.08075608 0.07874321 -0.032065395 -0.06429553 0.043648884 -0.11900239 -0.048069544 -0.001040113
-0.05733741 0.049694862 -0.12943788 -0.05188766 -0.0681123 0.09122757 0.03002274 -0.11558501
0.03226737 -0.024569815 0.09097816 0.04596725 -0.096109346 0.08762118 -0.043516245 -0.052429374
0.014894345 0.1027781 0.015004076 -0.14353873 -0.06004 0.09915292 -0.058828145 -0.08231159
-0.12227669 -0.09195461 -0.08657767 0.006550274 0.026795847 0.09557254 0.06456767 -0.021113813
0.047386542 0.054134283 -0.12994096 0.041797794 -0.10774477 0.078230575 -0.073288605 0.0015496386
00000000: 43ca b3bd 2e91 d13d aea2 dd3d f243 c63d
00000010: a313 46bd 8438 a73d 1b28 dabd 2ce1 6d3d
00000020: bf2b 04bc dc47 dfbd 3eb1 d3bd 8454 eabd
00000030: a465 ae3c 4d03 17bd 7269 58bd 871b fe3d
00000040: e6e9 2fbd c49d 053d c1bb 7bbc 0ffa ad3d
00000050: b5fa 0c3d 0281 b43d 1a11 f73c a86d e0bc
00000060: ec8b f13d 1911 eebb 060c a0bd 5b8b 2f3d
00000070: 6fb6 23bc 0e46 c8bd f4e6 5a3c 0638 04bd
00000080: babb 42bd ee2a 70bd 2704 5fbd 204c 4dbd
00000090: 886b b13c 69a3 ef3d db27 9fbd 2451 71bd
000000a0: 0de2 abbd c31e dfba 4484 213c a9e8 b0bd
000000b0: bb5f 5e3d 6130 d5bd 5801 fa3d c3bd b23c
000000c0: 73bf 65bc 06bf 34bd 5431 813d 1193 b53d
000000d0: 34d9 a8bd c845 e0bc 1804 c03d 8d84 e1bc
000000e0: 0e62 b1bd 75f2 15bd a1b8 923b fc3d c0bc
000000f0: 98c8 abbd ca61 a0bd f017 063d 60d8 b33d
00000100: 2700 c33d bedb 05bd bbda ff3c c2d7 ebbd
00000110: ddc5 1b3d da25 d13d 35c0 253d 56b3 75bd
00000120: 50e0 aa3d a416 11be 9dbd 26bd 0cc2 43bd
00000130: 7464 15be db03 a8bd e08c d9bd cbbf 913c
00000140: 6786 11bd ae76 043d 885b 34bd 8fe2 af3d
00000150: 63a4 1fbc f5f7 b13d dfa3 9c3d a04e e9bd
00000160: 5159 cabd b168 743d 6f30 b93d 7967 f3bd
00000170: fe49 91bc fafa 92bd c54a be3d 0d57 a13d
00000180: bbba 8f3d 1703 4b3d 9776 01bd 5b94 c33d
00000190: 0e12 a2bd 2347 34bc 89e1 56bd 5f34 e4bd
000001a0: 9187 9fbd adcb 273c 6e63 02bd 14cc cebd
000001b0: ed2c 14bd 686b adb8 7a41 dbbd a350 6c3d
000001c0: d72a 00be 2b93 97bc ca10 febd 1497 08be
000001d0: f2ed 0dbd a462 bb3d 0dac c73d c68f c53c
000001e0: 0d90 973d 63a5 b0bd c553 573d 872c 6b3d
000001f0: c6c5 09be 3ffe e9bd f7e7 fc3c ae0c 2abc
00000200: d7f1 b7bd 5b02 cabd 8ac4 b93d 3053 473c
00000210: d38e 983b dd7b e0bd 09a5 e13d 12f7 b8bd
00000220: a0b4 743d 9c18 5cbc 4ca5 3e3b e453 673d
00000230: acad 00bd 7a88 37bd 79a3 c83d 554e c0bd
00000240: bfe2 5e3d f1dc f3bc 8c52 44bd 5adc a33d
00000250: e342 bf3c bb07 00be ec47 e83d a8a3 90bd
00000260: 023e cc3d 0487 5abd e919 fb3d 57f1 e53c
00000270: 935f 9abb b98d 4d3d cc47 6b3b 3ad3 73bd
00000280: 2863 923d 17a7 9a3d b593 a1bc 2f88 f93d
00000290: 672b ad3b e10e 8ebd edda 8dbd 9e97 b23d
000002a0: 1c1f 5ebd a447 af3d 48b6 efbd adda 903a
000002b0: d037 a7bd b67b 433d e423 da3d ccf8 3d3d
000002c0: 2e4a 30bd babd ebbd 3d20 62bd d6e0 9fbd
000002d0: 4bb4 ea3d 10d8 84bd f427 573d d760 c63d
000002e0: 50cb 5a3d 46af dfbd 3ab6 90bc a122 26bd
000002f0: 8779 ab3d bf56 12bc 082e f6ba c269 e03d
00000300: 6cab 0e3c fc81 133d 4094 6bbd 6ac8 7f3d
00000310: ab35 4bba c060 4cbd c0db 29ba 12eb edbd
00000320: a86d 87bc 024d 053d d039 12be 4d4b b5bd
00000330: 0d77 603d 6918 35bc 446a e6bc b353 0dbc
00000340: 7263 a5bd 1f44 a13d 0157 03bd 60ad 83bd
00000350: 2cc9 323d 86b7 f3bd 92e4 44bd 6754 88ba
00000360: a2da 6abd d78c 4b3d 5d8b 04be 2888 54bd
00000370: 767e 8bbd 85d5 ba3d 40f2 f53c d5b7 ecbd
00000380: ca2a 043d a346 c9bc c252 ba3d 2848 3c3d
00000390: fad4 c4bd bc72 b33d 173e 32bd 2fc0 56bd
000003a0: 6907 743c 537d d23d a8d3 753c d1fb 12be
000003b0: 81ec 75bd b010 cb3d c8f5 70bd fb92 a8bd
000003c0: 346c fabd b352 bcbd a24f b1bd aea3 d63b
000003d0: f782 db3c 89bb c33d 0e3c 843d e0f6 acbc
000003e0: 6418 423d e9bb 5d3d 3e0f 05be 2a34 2b3d
000003f0: 4aa9 dcbd 5a37 a03d 5618 96bd 3e1d cb3a

core.experts.0.net.0.bias f4 [32]
-0.09820786 0.0026947584 -0.024124807 0.071339816 -0.09147319 0.031934135 0.03318689 0.009311026
-0.044864923 0.14189273 -0.111639395 0.14426455 0.047306024 0.052237753 0.06311994 0.008977863
0.045437533 0.0066796555 -0.08031037 0.033779867 0.07743242 0.06859895 0.012659019 -0.08004821
0.008658942 0.012298718 -0.086407885 0.11527188 -0.02466641 0.020484563 0.14235583 0.039437987
00000000: 3421 c9bd 8b9a 303b 63a1 c5bc 9c1a 923d
00000010: 4c56 bbbd 5ecd 023d faee 073d 468d 183c
00000020: 48c4 37bd 544c 113e 32a3 e4bd 16ba 133e
00000030: f6c3 413d 41f7 553d 0745 813d e317 133c
00000040: b51c 3a3d 03e1 da3b c379 a4bd c25c 0a3d
00000050: e394 9e3d 9b7d 8c3d c667 4f3c 51f0 a3bd
00000060: 3cde 0d3c 9080 493c 9ef6 b0bd aa13 ec3d
00000070: 3611 cabc 3ecf a73c bac5 113e ba89 213d

core.experts.1.net.0.weight f4 [32, 64]
-0.07022085 0.046260685 0.07470307 0.056406986 -0.06711361 0.0044914954 -0.09930055 -0.021888798
-0.090011 0.061539985 0.1130962 -0.12435529 -0.064201266 -0.04207487 -0.093056224 0.10741996
-0.10768717 -0.07902432 -0.1012265 0.0017684161 -0.10288461 -0.07761201 0.111281715 0.051363476
0.053124554 0.09065999 0.009469387 0.020687794 -0.08792623 0.025358658 -0.106365375 -0.010692834
-0.07129991 -0.07589671 -0.08118087 -0.071225904 -0.07724372 -0.078039855 -0.05099376 -0.12064976
0.090603784 0.030306725 -0.13258193 -0.13732766 -0.06879091 0.043078393 0.11019205 -0.026797954
0.06516404 -0.076062165 -0.032793753 -0.029189432 -0.12224294 -0.007611806 0.03049083 0.06490668
-0.10116507 -0.03777827 -0.0066896593 0.005657207 0.014609411 -0.09948057 0.07927168 -0.121916875
-0.06235232 0.04488611 -0.04825753 -0.079051435 -0.14474212 0.06937252 -0.023455398 0.045261342
0.0026722096 -0.11374115 -0.065706514 0.071366586 -0.08031036 -0.07425955 0.05000679 -0.070122965
-0.0007021914 -0.081793085 0.02145802 -0.0033859494 -0.1194252 -0.10977486 0.025319453 -0.053728674
0.05214579 -0.01042963 -0.063339 -0.035390094 -0.07499838 0.04159228 0.07733581 -0.024502093
-0.09758688 0.07178447 0.08302993 0.06617455 -0.02084722 0.011683068 -0.010135353 -0.06562432
-0.14168558 -0.032158356 0.03552166 0.054598328 0.010774148 0.03620251 0.058225665 -0.041906767
0.06328967 -0.021223228 -0.064357035 -0.06719739 -0.09121268 -0.11392612 0.009468422 0.09622189
-0.0016748097 -0.0031662723 -0.064786315 -0.06642015 -0.056645226 0.023411574 0.005901825 -0.06452378
0.019769723 -0.023971364 -0.004900865 0.08608212 -0.046406176 0.12080202 -0.06955932 0.112108506
0.054387126 0.05082959 -0.030495005 -0.037843958 -0.0815029 -0.11568581 0.086334914 0.12115685
0.037329786 -0.04587087 0.020055648 -0.007081237 -0.10358256 -0.104883336 0.04201738 -0.030783642
-0.0298058 -0.08614099 0.052197702 -0.07158033 -0.040082715 0.06314356 0.12334487 0.1105418
0.054581176 0.019370224 0.10215784 0.11350668 0.06250169 0.043930747 0.027204307 0.013780016
0.08070942 0.034390207 -0.10469075 -0.07630557 -0.106474556 -0.035526134 0.010384386 -0.046971764
-0.1142203 -0.08046337 0.050962206 0.0049270876 -0.0074220086 0.016596848 -0.01596334 -0.06604786
-0.05159688 -0.038371004 -0.118086286 -0.1131215 -0.046965748 0.045781817 0.12333105 -0.0039720647
0.06566089 0.020820942 -0.11485372 -0.07983863 -0.053117394 -0.123952724 -0.006825758 0.0144212525
-0.117809735 -0.050076023 -0.13514154 0.10409918 0.051270775 -0.06019717 0.08679957 -0.09715937
0.08142378 -0.07192553 0.017230904 0.06817549 0.037320167 0.013526648 -0.038695015 -0.009798792
0.08849122 -0.058297466 -0.066071704 9.2937626e-05 -0.07462564 -0.07088704 -0.010946638 0.070072375
0.023973638 -0.097114846 0.053577054 -0.06846548 0.009696811 -0.013828219 0.06764455 -0.049906887
-0.0714582 -0.04730521 -0.020463452 -0.07984277 0.06652365 -0.08436394 0.008096948 -0.11499657
-0.03637566 -0.048534878 -0.069904484 0.043564867 -0.13274838 -0.009421461 -0.026667135 -0.08604823
0.07672289 0.06143561 0.01692184 -0.018782407 0.047445707 -0.07536235 -0.119202174 0.095701076
00000000: f3cf 8fbd d87b 3d3d ecfd 983d 030b 673d
00000010: dc72 89bd 652d 933b 165e cbbd 2350 b3bc
00000020: b057 b8bd 5a11 7c3d fb9e e73d fcad febd
00000030: f47b 83bd b356 2cbd 4394 bebd fffe db3d
00000040: 178b dcbd 81d7 a1bd d74f cfbd 33ca e73a
00000050: 2bb5 d2bd 0cf3 9ebd abe7 e33d 8262 523d
00000060: 2299 593d f2ab b93d 7d25 1b3c 7379 a93c
00000070: ab12 b4bd f6bc cf3c 17d6 d9bd ff30 2fbc
00000080: b005 92bd bc6f 9bbd 2842 a6bd e3de 91bd
00000090: f531 9ebd 5cd3 9fbd d5de 50bd 3917 f7bd
000000a0: 7a8e b93d cf45 f83c 8fc3 07be 9f9f 0cbe
000000b0: 40e2 8cbd f872 303d 5fac e13d 6287 dbbc
000000c0: b974 853d 7bc6 9bbd be52 06bd ad1e efbc
000000d0: 825a fabd 756c f9bb e8c7 f93c cbed 843d
000000e0: a22f cfbd 63bd 1abd ee34 dbbb 1860 b93b
000000f0: 505c 6f3c 78bc cbbd 3159 a23d 8eaf f9bd
00000100: 2565 7fbd 7fda 373d b0a9 45bd b8e5 a1bd
00000110: 4737 14be 2e13 8e3d 8925 c0bc f563 393d
00000120: 3d20 2f3b 1ff1 e8bd 2391 86bd a528 923d
00000130: c279 a4bd 6415 98bd ebd3 4c3d a19c 8fbd
00000140: 4413 38ba 2283 a7bd bbc8 af3c cee6 5dbb
00000150: 3395 f4bd a4d1 e0bd be6a cf3c 9912 5cbd
00000160: d396 553d 0ae1 2abc e1b7 81bd 34f5 10bd
00000170: c098 99bd ab5c 2a3d 3d62 9e3d 9db8 c8bc
00000180: a1db c7bd bc03 933d 990b aa3d 8686 873d
00000190: cac7 aabc 576a 3f3c c00e 26bc 0b66 86bd
000001a0: 0616 11be 7bb8 03bd 297f 113d 7fa2 5f3d
000001b0: 0d86 303c 1549 143d 097e 6e3d 6ea6 2bbd
000001c0: 049e 813d 56dc adbc 9fcd 83bd c99e 89bd
000001d0: b7cd babd 1952 e9bd 7121 1b3c fb0f c53d
000001e0: 4a85 dbba 3c81 4fbb b0ae 84bd 4a07 88bd
000001f0: d304 68bd a1c9 bf3c 1964 c13b 0b25 84bd
00000200: 1df4 a13c 985f c4bc 6f97 a0bb d34b b03d
00000210: 6714 3ebd 0d67 f73d 1e75 8ebd 2599 e53d
00000220: 09c5 5e3d b032 503d a9d0 f9bc 4402 1bbd
00000230: feea a6bd afec ecbd 5cd0 b03d 1521 f83d
00000240: 1ee7 183d 18e3 3bbd be4b a43c b909 e8bb
00000250: 1823 d4bd 13cd d6bd 6b1a 2c3d fa2d fcbc
00000260: 4b2b f4bc b06a b0bd 42cd 553d b598 92bd
00000270: c62d 24bd 6951 813d 3c9c fc3d bd63 e23d
00000280: 8390 5f3d 4eae 9e3c 2138 d13d 3176 e83d
00000290: e300 803d baf0 333d 91db de3c 94c5 613c
000002a0: fb4a a53d bfdc 0c3d 1b68 d6bd 1846 9cbd
000002b0: 550f dabd da83 11bd 4623 2a3c 7765 40bd
000002c0: 55ec e9bd fbc9 a4bd bfbd 503d 6873 a13b
000002d0: 5234 f3bb 1df6 873c 8dc5 82bc 1a44 87bd
000002e0: 4057 53bd ea2a 1dbd 39d7 f1bd 3fac e7bd
000002f0: 285f 40bd b785 3b3d fd94 fc3d 1828 82bb
00000300: 3779 863d ae90 aa3c 6d38 ebbd 7082 a3bd
00000310: a091 59bd edda fdbd 9caa dfbb 1e47 6c3c
00000320: 3b46 f1bd 841c 4dbd 8b62 0abe f331 d53d
00000330: 4e01 523d 4f91 76bd f9c3 b13d 7efb c6bd
00000340: 83c1 a63d b14d 93bd d327 8d3c 979f 8b3d
00000350: 08dd 183d e09e 5d3c aa7e 1ebd 1d8b 20bc
00000360: e23a b53d 53c9 6ebd 9a50 87bd 82e7 c238
00000370: 54d5 98bd 392d 91bd 8759 33bc 1b82 8f3d
00000380: 5d64 c43c 26e4 c6bd 9d73 5b3d a137 8cbd
00000390: 60df 1e3c c18f 62bc 3a89 8a3d 2a6b 4cbd
000003a0: ad58 92bd 1cc3 41bd f8a2 a7bc 9b84 a3bd
000003b0: 8d3d 883d 00c7 acbd 10a9 043c 5283 ebbd
000003c0: a5fe 14bd 82cc 46bd 152a 8fbd 1371 323d
000003d0: 31ef 07be 795c 1abc 0975 dabc 0e3a b0bd
000003e0: e420 9d3d e8a3 7b3d ac9f 8a3c 90dd 99bc
000003f0: 6e56 423d 9357 9abd 4520 f4bd edfe c33d

core.experts.1.net.0.bias f4 [32]
0.058591377 0.09436043 -0.12526028 0.10129125 0.11410496 0.06692314 -0.08303155 0.08671107
0.07094122 0.13136557 -0.1131346 0.046066634 0.05859184 -0.13533823 0.10009044 0.0791123
-0.067410804 -0.0757386 0.037128467 0.0825537 0.008492592 0.029179383 0.022965312 -0.09166625
0.06300166 0.063495085 -0.07915969 -0.016242234 0.10664577 -0.06184619 -0.053908505 0.053511284
00000000: 83fd 6f3d 0b40 c13d 3b44 00be c971 cf3d
00000010: dcaf e93d 000f 893d 720c aabd 9395 b13d
00000020: a149 913d b284 063e 1db3 e7bd 5eb0 3c3d
00000030: fffd 6f3d 1b96 0abe 37fc cc3d a105 a23d
00000040: ad0e 8abd d71c 9bbd 0514 183d ea11 a93d
00000050: 8324 0b3c 9a09 ef3c c021 bc3c 84bb bbbd
00000060: 0407 813d b609 823d 7a1e a2bd 6f0e 85bc
00000070: 1969 da3d 6e52 7dbd 2acf 5cbd a62e 5b3d

core.experts.2.net.0.weight f4 [32, 64]
0.050183978 0.09396747 -0.057322577 0.01745778 0.013315609 0.08694477 0.05412416 0.020793295
-0.026097355 -0.039427396 -0.082750544 0.03901433 0.09184246 -0.058364816 -0.09809378 0.07928113
-0.0009007391 -0.07711212 0.076511726 -0.09894811 -0.07783713 -0.033229575 -0.021955188 0.025737965
0.052708864 -0.04439605 -0.029009778 -0.06539993 -0.09042303 0.01113107 0.07629596 0.09109761
-0.10755063 0.04425175 -0.05316539 -0.023393255 -0.017486585 0.09119536 0.09041351 -0.11539262
0.011862141 0.056354973 0.018649375 -0.017129626 -0.073546566 -0.09946821 -0.13301764 -0.017634023
-0.06420446 0.014898624 -0.06609638 0.088564634 -0.10177964 0.09888021 -0.060363073 0.0027486486
-0.060352355 0.04386987 0.08273422 0.10321113 -0.1014361 0.0730864 0.06745994 -0.11452366
0.032129914 0.010218944 0.055346202 0.09317503 -0.017748784 -0.06326034 -0.076847784 0.0015303085
-0.03469711 -0.10884532 -0.01692496 0.05483313 -0.012935512 0.062079854 -0.06700373 0.08363482
0.010191995 -0.06254271 0.04418785 0.047061924 -0.07237225 -0.038944654 0.04460156 -0.11935389
0.032106116 0.012647603 -0.105187744 -0.02711957 0.019176748 0.067303374 0.07052724 -0.10049405
-0.096404985 0.044263724 0.10619684 0.08832528 0.03133591 0.10322785 -0.07433826 -0.020960055
-0.11874868 -0.09549142 -0.100657254 -0.13077168 0.015869927 0.012575656 0.031746015 0.068511434
-0.11407056 -0.054332845 0.07857925 -0.12499177 0.07242755 0.02229415 -0.11947362 0.012655182
-0.016236894 0.0049284003 -0.05369469 0.04110716 0.08177874 0.06732736 -0.027885737 -0.13373755
0.11174379 0.034758877 0.10647674 0.042780917 0.009075523 0.07248522 0.06837131 -0.017030803
0.02079226 -0.0060739806 0.08431305 0.052796748 -0.020088319 0.11293697 0.116704755 0.09945266
0.022373203 0.011339018 -0.07492094 0.08420847 -0.08511985 -0.11341883 0.040535774 -0.12612647
0.026886426 -0.07640015 0.003950709 -0.059868306 0.10154046 -0.09223654 0.02799007 0.005877304
-0.11700727 0.096024886 0.021964965 -0.09789203 -0.12728652 0.053612217 0.0963063 -0.02705522
-0.04046994 -0.10662405 0.08691619 -0.05301328 -0.054447573 0.051365364 0.113897204 0.058147106
0.03749259 0.11050636 0.0052820398 0.014668197 -0.013705457 -0.076067194 0.026235553 -0.069434226
0.07932668 -0.082892984 -0.10630666 -0.03005642 0.0925012 -0.09504624 -0.039523415 -0.012545442
-0.06535943 0.0486774 0.10048661 0.051212195 -0.04406805 -0.11078736 -0.12060116 -0.04064624
-0.050463896 -0.11245005 0.011804872 -0.059666727 0.024141775 -0.07329096 -0.019565525 -0.053011242
0.05859958 -0.12630466 -0.06230201 0.017610822 -0.04819095 -0.0084750615 0.06858561 0.0108079305
0.0041207084 0.024683159 -0.08448698 -0.061980605 0.048509136 0.004669435 0.06602571 -0.033638712
0.106726825 0.058916874 -0.050718 -0.07396581 0.0105339885 -0.118756965 -0.071286134 0.026904829
-0.004799167 0.042240687 -0.06198442 0.08974676 -0.08144456 -0.07633142 0.07508914 -0.033964716
0.025308667 -0.03332 -0.10448111 -0.022028206 0.04167543 0.06845278 0.0850435 -0.02118203
0.07838408 0.025949074 -0.0104098655 -0.011729445 -0.02204455 0.022659454 -0.02509241 0.063583925
00000000: b78d 4d3d 0472 c03d 14cb 6abd 9e03 8f3c
00000010: b629 5a3c 1910 b23d 4cb1 5d3d b356 aa3c
00000020: 1fca d5bc 9f7e 21bd 1e79 a9bd 7dcd 1f3d
00000030: e617 bc3d f20f 6fbd 64e5 c8bd 255e a23d
00000040: 941f 6cba f6ec 9dbd 2eb2 9c3d 4fa5 cabd
00000050: 1369 9fbd bc1b 08bd 5edb b3bc 6dd8 d23c
00000060: 40e5 573d a2d8 35bd eaa5 edbc 66f0 85bd
00000070: b62f b9bd 175f 363c 0e41 9c3d 6291 ba3d
00000080: 8143 dcbd 5341 353d f4c3 59bd 36a3 bfbc
00000090: 0740 8fbc a2c4 ba3d b82a b93d f752 ecbd
000000a0: 6d59 423c 79d4 663d 93c6 983c 6e53 8cbc
000000b0: 959f 96bd fdb5 cbbd c735 08be 3a75 90bc
000000c0: a17d 83bd 5c19 743c 8a5d 87bd 6061 b53d
000000d0: d871 d0bd b581 ca3d 453f 77bd ac22 343b
000000e0: 0834 77bd e5b0 333d 8f70 a93d 5b60 d33d
000000f0: bbbd cfbd 53ae 953d 7028 8a3d 618b eabd
00000100: a89a 033d 5c6d 273c b3b2 623d 8dd2 be3d
00000110: e665 91bc a38e 81bd 5f62 9dbd a294 c83a
00000120: 8f1e 0ebd 4cea debd 37a6 8abc b498 603d
00000130: 78ef 53bc 7247 7e3d 4039 89bd bc48 ab3d
00000140: 53fc 263c 6416 80bd 52fe 343d 01c4 403d
00000150: e737 94bd 6e84 1fbd 20b0 363d d06f f4bd
00000160: b481 033d e437 4f3c ac6c d7bd dc29 debc
00000170: 8e18 9d3c 5ad6 893d 9670 903d d3cf cdbd
00000180: fa6f c5bd e14d 353d bb7d d93d e2e3 b43d
00000190: 155a 003d 1f69 d33d a83e 98bd 6cb4 abbc
000001a0: 8232 f3bd 0191 c3bd 6425 cebd 03e9 05be
000001b0: a601 823c 200a 4e3c 1c08 023d b94f 8c3d
000001c0: d39d e9bd 1e8c 5ebd 28ee a03d affb ffbd
000001d0: e554 943d 39a2 b63c 96ae f4bd ae57 4f3c
000001e0: 3c03 85bc 6b7e a13b f7ee 5bbd fb5f 283d
000001f0: 9d7b a73d ede2 893d a170 e4bc 7ff2 08be
00000200: eed9 e43d 535f 0e3d 7a10 da3d 0b3b 2f3d
00000210: 81b1 143c 2273 943d 4206 8c3d 2f84 8bbc
00000220: 8854 aa3c 3e08 c7bb 52ac ac3d 6741 583d
00000230: 4290 a4bc 804b e73d e702 ef3d d6ad cb3d
00000240: 0248 b73c 4ac7 393c 2670 99bd 7e75 ac3d
00000250: 5153 aebd 2248 e8bd d708 263d 4c27 01be
00000260: ec40 dc3c af77 9cbd f374 813b 7838 75bd
00000270: 72f4 cf3d 83e6 bcbd 6e4b e53c 6696 c03b
00000280: 82a1 efbd b2a8 c43d dfef b33c 9e7b c8bd
00000290: 6657 02be 7c98 5b3d 3d3c c53d e9a2 ddbc
000002a0: cfc3 25bd b65d dabd 1e01 b23d 7424 59bd
000002b0: 6b04 5fbd 7d64 523d f042 e93d a92b 6e3d
000002c0: d491 193d 2951 e23d f614 ad3b e152 703c
000002d0: da8c 60bc 1ec9 9bbd f1eb d63c 8833 8ebd
000002e0: 0776 a23d ccc3 a9bd 4eb7 d9bd e238 f6bc
000002f0: 4571 bd3d 9aa7 c2bd 4ee3 21bd 668b 4dbc
00000300: 2adb 85bd f461 473d eccb cd3d e1c3 513d
00000310: b380 34bd 7ce4 e2bd befd f6bd ac7c 26bd
00000320: 3bb3 4ebd 364c e6bd 3969 413c 1965 74bd
00000330: f9c4 c53c 9219 96bd e147 a0bc 5122 59bd
00000340: 1d06 703d 0256 01be 6430 7fbd 9244 903c
00000350: e063 45bd fcda 0abc 9d76 8c3d bf13 313c
00000360: 0207 873b 5634 ca3c 8307 adbd 60df 7dbd
00000370: 84b1 463d 0f02 993b 7d38 873d bfc8 09bd
00000380: 9893 da3d d252 713d adbd 4fbd 637b 97bd
00000390: c096 2c3c da36 f3bd 77fe 91bd 8467 dc3c
000003a0: 5542 9dbb 9204 2d3d 60e3 7dbd 26cd b73d
000003b0: 68cc a6bd a653 9cbd 56c8 993d 961e 0bbd
000003c0: 1f54 cf3c 8d7a 08bd 31fa d5bd 7f74 b4bc
000003d0: dbb3 2a3d f930 8c3d 492b ae3d f085 adbc
000003e0: d587 a03d 2793 d43c 248e 2abc dc2c 40bc
000003f0: c696 b4bc 52a0 b93c 998e cdbc 4a38 823d

core.experts.2.net.0.bias f4 [32]
0.026338074 -0.029214738 0.038581945 -0.13860025 -0.053789064 -0.019805532 -0.1341226 -0.105265334
-0.10787384 0.060111977 0.026530636 0.026301762 -0.01796338 -0.0106834695 0.049272746 -0.09798357
0.11969145 0.085007906 -0.011575311 0.06979328 -0.01243914 -0.04264755 0.1429697 0.069383524
0.09978697 -0.053235445 -0.107622914 0.10584954 -0.009431173 0.06435857 -0.00069527095 0.041631795
00000000: f2c2 d73c bf53 efbc 1a08 1e3d 39ed 0dbe
00000010: ec51 5cbd 363f a2bc 6f57 09be 5a95 d7bd
00000020: f6ec dcbd fa37 763d c756 d93c cb76 d73c
00000030: f027 93bc b809 2fbc 38d2 493d 9cab c8bd
00000040: ca20 f53d a018 ae3d 60a6 3dbc c7ef 8e3d
00000050: 89cd 4bbc 33af 2ebd a666 123e f318 8e3d
00000060: 1c5d cc3d 690d 5abd 6769 dcbd a5c7 d83d
00000070: 3585 1abc 6dce 833d d842 36ba 1a86 2a3d

core.gate_reg.fc.weight f4 [3, 64]
-0.07144099 0.025555525 0.10791422 -0.0066160625 0.1401378 0.073038846 0.094115876 0.15253332
-0.002096986 -0.001642887 0.10421346 -0.03466288 -0.06651817 0.09752513 -0.07726185 -0.039528225
0.057403795 0.04813424 -0.048741844 -0.008782429 0.10578155 -0.06494976 0.10337649 -0.010201482
-0.023295624 -0.109863214 -0.0027902604 0.11327338 -0.037570976 -0.07195434 0.023039894 0.12144472
-0.0015185006 0.14330263 0.14589041 0.14084795 -0.039126374 -0.068131275 -0.09108906 -0.0010108507
-0.055537842 0.090579085 0.03744109 0.12749684 -0.0832656 -0.0725421 0.009349262 0.054085705
0.12888886 0.016123667 0.13974118 -0.015881589 0.003735054 -0.015339464 -0.02079895 -0.02925296
-0.075283214 0.016521087 -0.014449281 -0.05646804 -0.07176457 -0.08814364 0.0036953697 -0.06899971
0.08574651 -0.02098579 0.043656707 -0.08511623 -0.018014189 -0.13434465 0.05162348 0.048299704
-0.10980542 0.06402373 0.018836528 -0.068749405 -0.041124348 0.10643782 -0.09412201 0.13132001
0.028953908 0.029357 -0.076893 0.039504785 0.042575326 0.08328451 -0.10801935 -0.050372552
-0.013403899 -0.09422247 0.03933721 0.070675924 0.059884053 -0.050577223 0.04622721 -0.09612696
0.08972286 -0.08651419 -0.100445785 0.06428033 -0.04109464 0.050793096 0.13364375 0.14586096
0.09098396 -0.14052977 0.0013625027 -0.015485292 -0.10296728 0.07275981 0.08346961 -0.03244466
-0.005628364 -0.050377317 0.016337367 0.030560637 -0.029089894 0.042055707 -0.013012239 0.016635539
0.08302896 -0.08828805 -0.13387828 0.086407796 -0.05663365 0.015331226 -0.044463832 0.056878425
-0.025428902 -0.072924905 -0.1003813 0.06581632 -0.11046965 0.010433743 0.069785394 -0.121990114
-0.12865226 -0.00893946 -0.06854955 -0.112554766 0.061846077 -0.11287632 -0.0824812 -0.124819405
0.011761586 -0.00961346 0.038470503 0.039877173 -0.0213828 -0.05187322 0.08826256 0.0055632284
0.020791113 -0.10649414 -0.14408794 -0.060428414 -0.08509813 0.014498849 -0.08788365 -0.011391422
0.09458168 -0.05540631 0.01081687 -0.021918021 0.072998784 0.03400938 -0.028384548 0.043801583
-0.031212274 -0.052246142 -0.07197087 -0.122343116 0.0753807 -0.1115614 -0.14593783 -0.07873776
0.003082774 -0.036356542 0.02438254 0.057720687 0.054895613 -0.1281688 0.026154658 0.050618008
-0.10189782 -0.026986102 -0.0038302029 -0.006805958 0.04388889 0.07434896 0.09185446 0.015128255
00000000: a74f 92bd d259 d13c 2102 dd3d 8ecb d8bb
00000010: 4980 0f3e 6495 953d d3bf c03d b231 1c3e
00000020: 966d 09bb 2456 d7ba de6d d53d aafa 0dbd
00000030: ae3a 88bd 41bb c73d 763b 9ebd 59e8 21bd
00000040: 3e20 6b3d 6928 453d 87a5 47bd 2de4 0fbc
00000050: ffa3 d83d 6104 85bd 0eb7 d33d 1e24 27bc
00000060: 77d6 bebc f7ff e0bd cddc 36bb e0fb e73d
00000070: 06e4 19bd cc5c 93bd 29be bc3c 02b8 f83d
00000080: 6d08 c7ba edbd 123e 4c64 153e 723a 103e
00000090: fa42 20bd 6988 8bbd e78c babd 857e 84ba
000000a0: a67b 63bd 8781 b93d d45b 193d 888e 023e
000000b0: 2887 aabd f490 94bd a62d 193c f988 5d3d
000000c0: 71fb 033e c815 843c 5018 0f3e 1b1a 82bc
000000d0: cfc7 743b 6052 7bbc 8f62 aabc e7a3 efbc
000000e0: 162e 9abd 3b57 873c adbc 6cbc 084b 67bd
000000f0: 4ef9 92bd a784 b4bd 042e 723b b84f 8dbd
00000100: de9b af3d 64ea abbc 60d1 323d 6b51 aebd
00000110: 7e92 93bc a591 09be 2473 533d e9d5 453d
00000120: aae1 e0bd e01e 833d 104f 9a3c 7dcc 8cbd
00000130: 0172 28bd 12fc d93d 0ac3 c0bd c178 063e
00000140: bf30 ed3c 177e f03c 147a 9dbd c5cf 213d
00000150: 7763 2e3d 1291 aa3d 4039 ddbd 7353 4ebd
00000160: 079c 5bbc b6f7 c0bd 0e20 213d 8abe 903d
00000170: fb48 753d 102a 4fbd be58 3d3d 36de c4bd
00000180: 9ec0 b73d 5a2e b1bd 85b6 cdbd 68a5 833d
00000190: da52 28bd 6c0c 503d e8d9 083e 935c 153e
000001a0: cc55 ba3d 09e7 0fbe 0196 b23a 06b6 7dbc
000001b0: 82e0 d2bd 1803 953d 1df2 aa3d b1e4 04bd
000001c0: 246e b8bb 7258 4ebd f1d5 853c 4d5a fa3c
000001d0: ee4d eebc 9b42 2c3d 4931 55bc 4147 883c
000001e0: 160b aa3d 5dd0 b4bd 6317 09be 92f6 b03d
000001f0: b0f8 67bd d32f 7b3c b51f 36bd 5af9 683d
00000200: 4650 d0bc a759 95bd b694 cdbd b5ca 863d
00000210: e93d e2bd 4af2 2a3c a5eb 8e3d f4d5 f9bd
00000220: 6bbd 03be d076 12bc b563 8cbd 1d83 e6bd
00000230: 5052 7d3d b32b e7bd e7eb a8bd 51a1 ffbd
00000240: abb3 403c c681 1dbc 3f93 1d3d 3f56 233d
00000250: fb2a afbc 0379 54bd 00c3 b43d be4b b63b
00000260: 2052 aa3c 9a19 dabd ca8b 13be c983 77bd
00000270: ee47 aebd 958c 6d3c 58fc b3bd 16a3 3abc
00000280: 0ab4 c13d baf1 62bd 3e39 313c 6c8d b3bc
00000290: 6380 953d 6b4d 0b3d b686 e8bc 4a69 333d
000002a0: e2b0 ffbc 0d00 56bd 7765 93bd 078f fabd
000002b0: 3261 9a3d 4e7a e4bd ba70 15be 4341 a1bd
000002c0: 5e08 4a3b 99ea 14bd e4bd c73c 876c 6c3d
000002d0: 39da 603d af3e 03be 4b42 d63c d454 4f3d
000002e0: ceaf d0bd f511 ddbc 2404 7bbb 8404 dfbb
000002f0: d6c4 333d 4444 983d 311e bc3d 80dc 773c

core.gate_reg.fc.bias f4 [3]
0.105386905 0.05839123 -0.091300815
00000000: 17d5 d73d a42b 6f3d ecfb babd
